tests/fixtures/positionwise_feedforward_weights.pt (torch, 67374 bytes, 2 tensors)

w1.weight f4 [128, 64]
0	0x3c6512e0	0.013981551
1	0x3dc4f174	0.09616366
2	0xbda5df5c	-0.08099243
3	0x3d5eb7a8	0.054374367
4	0xbdc87624	-0.097881585
5	0xbd152a2c	-0.03641717
6	0xbd0c38c4	-0.034233823
7	0xbc327770	-0.010892734
8	0xbcd96480	-0.02653718
9	0x3d95e3e4	0.07318857
10	0xbd870e88	-0.065945685
11	0x3c2d86c0	0.010591209
12	0xbdae47fe	-0.08509825
13	0x3dd9aff2	0.10629262
14	0x38adb000	8.2820654e-05
15	0x3d0e272c	0.034705326
16	0xbd8ec0e8	-0.06970388
17	0x3dd3abfc	0.10335538
18	0x3d05b904	0.032647148
19	0x3dd057e0	0.10173011
20	0xbddad436	-0.10685007
21	0xbde1f54c	-0.11033115
22	0xbdb6cd30	-0.08925855
23	0x3db9879a	0.09059067
24	0x3d9124d0	0.070870996
25	0x3d852dee	0.06502901
26	0x3b190a40	0.0023352057
27	0xbddd44dc	-0.108041495
28	0x3db847c0	0.0899806
29	0x3df1256c	0.11774716
30	0x3d8da0f0	0.06915462
31	0xbcfc0bd8	-0.030767366
32	0xbd402308	-0.04690841
33	0x3d05d798	0.03267631
34	0x3ddaa1be	0.10675381
35	0xbdafc19e	-0.085818514
36	0xbd2d473c	-0.042304263
37	0x3d97ab84	0.07405761
38	0xbdc6d59c	-0.097087115
39	0xbca67c40	-0.020322919
40	0xbde46928	-0.111528695
41	0x3d8b0662	0.06788327
42	0x3d97d96e	0.07414518
43	0xbdddd8fa	-0.108324006
44	0xbd3ed13c	-0.04658626
45	0x3d4dbfd4	0.05023177
46	0x3c741c50	0.014899328
47	0x3d44b280	0.048021793
48	0x3d8cd096	0.06875722
49	0x3d149c18	0.036281675
50	0xbd9f2ed4	-0.07772604
51	0x3da70d7a	0.08156867
52	0xbd0b7150	-0.03404361
53	0x3b03c600	0.002010703
54	0x3d9b6490	0.0758754
55	0x3de13250	0.109959245
56	0xbd9fb040	-0.07797289
57	0xbdfd0678	-0.123547494
58	0xbd2a312c	-0.0415508
59	0x3d30d188	0.043168575
60	0x3dd8a5fc	0.10578534
61	0xbda1234a	-0.07868059
62	0x3d4262e0	0.047457576
63	0xbdb0ad4c	-0.08626804
64	0xbb688800	-0.0035481453
65	0x3cd039a0	0.025418103
66	0xbde9aa4a	-0.11409433
67	0x3dea256a	0.114329174
68	0xbdba4134	-0.09094468
69	0x3d946f66	0.0724781
70	0xbd28fe6c	-0.04125826
71	0xbd735b50	-0.059413254
72	0x3c86fe20	0.016478598
73	0x3da136a0	0.07871747
74	0x3d6492cc	0.05580406
75	0x3ce83698	0.028346345
76	0x3a772f00	0.0009429306
77	0x3deeefc0	0.116668224
78	0xbcb4d230	-0.022072881
79	0xbde7848c	-0.11304578
80	0x3d1a25ac	0.037633583
81	0xbd793534	-0.060841754
82	0xbc0cda60	-0.0085969865
83	0xbd660658	-0.056158394
84	0xbca6cd88	-0.020361677
85	0xbc3ea160	-0.0116351545
86	0xbda54fb6	-0.08071844
87	0xbdde0f9c	-0.10842821
88	0xbd478884	-0.048714176
89	0xbd527a30	-0.05138606
90	0x3dab5634	0.08366051
91	0xbc2f8f30	-0.010715291
92	0xbd93feea	-0.072263554
93	0xbd334084	-0.0437627
94	0x3d9f4cfe	0.07778357
95	0xbda97c0e	-0.08275615
96	0xbdbb6b14	-0.09151283
97	0xbd207bcc	-0.039180562
98	0x3d48ba6c	0.04900591
99	0x3d53bb48	0.051692277
100	0x3c3f3ba0	0.011671931
101	0xbb6c0a80	-0.0036017
102	0xbc86ccd0	-0.016455084
103	0x3d5581b4	0.052125648
104	0xbd9904a8	-0.07471591
105	0xbdd174f2	-0.10227384
106	0xbd37c9cc	-0.044870183
107	0x3dcae08c	0.0990611
108	0xbdbb0e36	-0.0913357
109	0xbd96090c	-0.07325944
110	0xbdd9352a	-0.10605843
111	0xbbb5ace0	-0.00554429
112	0x3d207100	0.039170265
113	0x3dff0350	0.12451804
114	0x3dcbad82	0.09945203
115	0x3d8f1c38	0.06987804
116	0xbd93db0c	-0.07219514
117	0x3b9c7760	0.004774973
118	0xbdb7cbba	-0.08974405
119	0x3d95f5a8	0.07322246
120	0x3de26a24	0.11055401
121	0x3d7a092c	0.061043903
122	0x3df4d670	0.11954963
123	0xbdc3bed8	-0.09557885
124	0x3d3d76b8	0.046255797
125	0xbdbe8530	-0.09302747
126	0xbda04d50	-0.07827246
127	0xb9e70800	-0.00044065714
128	0x3bc22ea0	0.0059259683
129	0x3d3df9b8	0.04638073
130	0x3d844094	0.0645763
131	0x3ddd97fa	0.10820003
132	0xbcaf6fe0	-0.02141565
133	0x3d0a4fb4	0.033767417
134	0xba5e4e00	-0.0008480251
135	0xbb84d220	-0.004053369
136	0xbc2786a0	-0.010224968
137	0xbd6c70ec	-0.05772488
138	0xbd782788	-0.060584575
139	0xbddd5dd8	-0.10808915
140	0x3b051840	0.0020308644
141	0xbd424fac	-0.047439262
142	0x3d241be4	0.04006566
143	0x3d5f7d8c	0.05456309
144	0xbcb5f110	-0.022209674
145	0xbd6f78ec	-0.05846493
146	0xbcf32ae8	-0.029683545
147	0x3ba08860	0.0048990697
148	0x3d4971a8	0.049180657
149	0x3d4d2948	0.050088197
150	0xbd2944f0	-0.04132551
151	0xbd8f3b48	-0.06993729
152	0x3dc0b216	0.09408967
153	0x3dbbdb1e	0.09172653
154	0xbd6cedb0	-0.057843864
155	0xbdbc5b1a	-0.09197064
156	0x3d102d70	0.035199583
157	0x3cae2580	0.021258116
158	0xbdff13d2	-0.12454952
159	0x3ccb8870	0.024845332
160	0xbd8828dc	-0.06648418
161	0x3d380f58	0.044936508
162	0x3d7db97c	0.06194447
163	0xbd76b994	-0.060235575
164	0xbd1df46c	-0.038563177
165	0xbdc5324c	-0.09628734
166	0xbdfeb540	-0.124369144
167	0x3d883a88	0.06651789
168	0xbddd29ca	-0.10798986
169	0x3c66b060	0.014080137
170	0x3d73768c	0.059439227
171	0x3ccef468	0.025263026
172	0xbc9ace78	-0.01889728
173	0x3a9dbe80	0.0012034923
174	0x3d281204	0.041032806
175	0x3c688080	0.014190793
176	0xbdb61dca	-0.088924006
177	0x3deb76ac	0.11497244
178	0xbdd1d58e	-0.102458104
179	0xbcba2250	-0.02272144
180	0xbddaa4aa	-0.106759384
181	0x3ddb8afa	0.10719867
182	0x3d8727b2	0.06599368
183	0x3bf07e80	0.0073392987
184	0xbdb56d20	-0.088587046
185	0x3daa9786	0.08329682
186	0xbcee2cc8	-0.029074088
187	0xbd7640d4	-0.06012042
188	0x3c4b35f0	0.012402996
189	0xbd1d8d04	-0.03846456
190	0xbc607b00	-0.0137012005
191	0xbc386870	-0.011255369
192	0xbd135480	-0.035969257
193	0x3d98237a	0.074286416
194	0xbdccb852	-0.09996094
195	0x3dcee340	0.10101938
196	0xbdf234b4	-0.118264586
197	0xbc47c590	-0.012193099
198	0xbc9885a8	-0.01861842
199	0x3dae1d38	0.08501667
200	0x3dc106fa	0.09425159
201	0x3d9896b0	0.07450616
202	0xbcd540f8	-0.026031956
203	0xbdc5b514	-0.096536785
204	0xbd99ff34	-0.07519379
205	0x3d8cefbc	0.06881663
206	0x3df05fbc	0.1173701
207	0x3d18fc58	0.03735003
208	0x3df9e60c	0.12202081
209	0xbd9d614c	-0.076845735
210	0x3dbb0d54	0.091334015
211	0x3dec7e10	0.11547482
212	0xbdf96a50	-0.121784806
213	0xbcadc460	-0.021211803
214	0x3c7243d0	0.014786676
215	0x3c13ae80	0.009013772
216	0x3d24a4dc	0.040196285
217	0x3da574e4	0.08078936
218	0x3d896e52	0.06710495
219	0x3c0eab10	0.008707777
220	0xbd5992d4	-0.05311854
221	0xbd870066	-0.06591873
222	0x3d33c740	0.04389119
223	0x3d137cf4	0.036007836
224	0x3db57ad6	0.0886132
225	0xbc3f8cf0	-0.011691317
226	0xbdec6f22	-0.115446344
227	0x3db82ce4	0.08992937
228	0x3ddc8c08	0.10768896
229	0x3dcbb2f2	0.099462405
230	0xbd7910b4	-0.060806945
231	0x3da5e376	0.08100025
232	0xbd3f386c	-0.046684667
233	0xbbfba140	-0.0076791346
234	0xbd62ef60	-0.055404067
235	0x3dbd7342	0.09250499
236	0x3dcf338a	0.10117252
237	0x3de4c3e8	0.11170179
238	0xbdc9f4ea	-0.09861167
239	0xbd667bbc	-0.056270346
240	0xbdb8d2ac	-0.090245575
241	0xbdb1ed16	-0.08687799
242	0xbc67d580	-0.014150023
243	0x3deed646	0.11661963
244	0x3dcd1e74	0.10015574
245	0x3d6ada28	0.057336956
246	0x3c70f320	0.014706403
247	0x3df51eea	0.11968787
248	0xbd8ef284	-0.0697985
249	0xbd9e1cc8	-0.07720333
250	0x3d8e81d2	0.06958355
251	0x3d255e48	0.040373117
252	0xbd037248	-0.03209141
253	0xbdc2ed44	-0.09517911
254	0xbdbfd284	-0.093663245
255	0xbda776ba	-0.08176942

w2.weight f4 [64, 128]
0	0x39351317	0.00017268617
1	0xbca7ce2c	-0.020484053
2	0xbd39405c	-0.045227394
3	0xbd9428a6	-0.072343156
4	0x3c134125	0.0089877
5	0xbd3fc5a6	-0.04681935
6	0xbd6f6a72	-0.058451124
7	0xbc4702bc	-0.012146648
8	0xbcf2454f	-0.029574065
9	0xbc8a51c9	-0.016884701
10	0x3b661056	0.0035104952
11	0x3da3ed34	0.08004227
12	0x3d1eef0c	0.03880219
13	0xbd843764	-0.064558774
14	0x3d9843a6	0.07434778
15	0x3d27b37b	0.04094265
16	0x3d95da67	0.073170476
17	0x3ab0f8af	0.0013501848
18	0x3d2d0ee7	0.04225054
19	0x3d580dc2	0.052747495
20	0xbb6a11d2	-0.0035716188
21	0xbdad13fd	-0.08451078
22	0x3d42e1ee	0.047578745
23	0x3ab03cf3	0.0013445899
24	0x3c7e9f5b	0.015540923
25	0x3daade4a	0.083431795
26	0x3d8bf32d	0.068334915
27	0xbd86edc2	-0.065883175
28	0xbbac2c87	-0.0052543315
29	0x3c82982a	0.015941698
30	0xbd6b267c	-0.05740975
31	0xbd5679bf	-0.0523622
32	0xbce6a628	-0.028155401
33	0x3d197a80	0.03747034
34	0xbd976e0a	-0.07394035
35	0x3c0d81e0	0.008636922
36	0xbd1d12cf	-0.038348015
37	0x3d810a6f	0.06300818
38	0xbd3edcab	-0.046597164
39	0xbda3ee09	-0.08004386
40	0xbca7d823	-0.020488804
41	0x3d4da3d3	0.050205063
42	0x3d06e4e3	0.032933127
43	0xbd977092	-0.07394518
44	0xbd0ee76b	-0.034888666
45	0xbda9d6ee	-0.08292948
46	0x3da3bc85	0.079949416
47	0x3d9b52e0	0.075841665
48	0x3c082db1	0.008311675
49	0xbd814117	-0.06311243
50	0x3c61a294	0.013771672
51	0xbd3518b7	-0.044213023
52	0x3cd36c95	0.025808612
53	0xbcd63ed9	-0.026153015
54	0x3cd326fa	0.025775421
55	0xbcc6e5fc	-0.024279587
56	0xbcf2f87e	-0.029659506
57	0x3db1d5e0	0.086833715
58	0xbcbbf4ce	-0.02294388
59	0xbd8904af	-0.066903464
60	0xbdb41f5f	-0.08795046
61	0x3d4f0224	0.05053915
62	0xbca12fb9	-0.019676076
63	0xbdab692c	-0.08369669
64	0x3d033db1	0.032041255
65	0x3d0d17ee	0.03444665
66	0x3db2ed41	0.08736659
67	0xbdb09ac6	-0.08623271
68	0x3d1c0c27	0.038097527
69	0xbd82d963	-0.063891195
70	0x3b9f2ed4	0.0048578773
71	0xbcbf2dcc	-0.023337267
72	0x3db0c03e	0.08630417
73	0x3cc1220e	0.023575809
74	0xbcc7af6c	-0.02437564
75	0xbd158f64	-0.0365137
76	0xbcc5190a	-0.024059791
77	0xbd8d5802	-0.06901552
78	0xbcfc7a4a	-0.03082003
79	0x3d25d5fc	0.040487275
80	0x3da5fea3	0.08105209
81	0x3d9fb2ee	0.077978
82	0x3d398008	0.045288116
83	0x3d2b4fa5	0.041824
84	0x3da96573	0.08271303
85	0x3d05bafc	0.032649025
86	0x3d69214b	0.056916516
87	0xbd89affb	-0.06723019
88	0x3ca169bb	0.019703737
89	0x3dab58e5	0.08366565
90	0x3da42aee	0.08016001
91	0x3d358a07	0.044321086
92	0xbc913560	-0.017725646
93	0x3c64f524	0.013974462
94	0xbd069d97	-0.032865133
95	0xbd9c0234	-0.07617608
96	0xbd2ca0c8	-0.04214552
97	0xbdae24e9	-0.08503134
98	0xbd1dad1a	-0.03849516
99	0xbd46564c	-0.048422143
100	0xbce90d8f	-0.028448848
101	0x3d205187	0.03914025
102	0x3d6e1ffc	0.05813597
103	0x3db2608f	0.08709823
104	0x3d9d1c76	0.07671444
105	0xbdb02009	-0.0859986
106	0xbcd69ed6	-0.026198786
107	0x3c60e102	0.013725521
108	0xbd7da62b	-0.06192605
109	0x3bc283b2	0.0059361095
110	0x3d41c70e	0.047308974
111	0x3d91cab4	0.07118741
112	0x3dad3491	0.08457292
113	0xbda335af	-0.07969224
114	0xbceb7c2b	-0.028745731
115	0x3c8e0d93	0.017340457
116	0x3b404e8b	0.002934369
117	0xbd8cae1d	-0.06869147
118	0xbd9165bf	-0.07099485
119	0xbd05d8f2	-0.0326776
120	0x3d8d05e3	0.068858884
121	0xbb8e3893	-0.0043402403
122	0xbda92daf	-0.082606666
123	0x3d03850b	0.0321093
124	0x3c8ab02a	0.016929705
125	0x3d8ec613	0.069713734
126	0xbd2556ac	-0.04036586
127	0xbce62acf	-0.028096585
128	0xbd2496a9	-0.040182743
129	0xbd338c0d	-0.043834735
130	0x3da1b713	0.07896247
131	0xbd836851	-0.06416381
132	0x3da22b8c	0.07918462
133	0xbda71d53	-0.0815989
134	0xbd8d2682	-0.068921104
135	0x3d38cc9d	0.04511701
136	0x3c0375dd	0.008023706
137	0x39638e49	0.00021701412
138	0x3c332a7b	0.010935421
139	0xbd7aea35	-0.061258513
140	0xbd88c43e	-0.06678055
141	0x3d977a56	0.073963806
142	0x3d88a646	0.06672339
143	0xbd0866c1	-0.03330112
144	0x3b743760	0.0037264451
145	0x3a942716	0.0011303152
146	0xbc9c3b5a	-0.01907127
147	0xbd95d90d	-0.0731679
148	0xbd406c3d	-0.046978224
149	0xbd17607d	-0.036957253
150	0x3dacf9d9	0.08446092
151	0x3d509443	0.050922643
152	0xbda6f3fb	-0.08152004
153	0x3d823143	0.06357052
154	0xbce2243f	-0.027605174
155	0xbc29ceb7	-0.010364226
156	0xbc78ecfe	-0.015193222
157	0x3da51868	0.08061296
158	0x399cb669	0.00029890545
159	0xbcde8611	-0.027163537
160	0xbc88f0b2	-0.016716335
161	0x3d584281	0.052797798
162	0x3c6e6f45	0.014552896
163	0xbda0993a	-0.07841726
164	0x3d2d8503	0.042363178
165	0x3d55152b	0.05202214
166	0xbc8c4a16	-0.01712517
167	0xbd28d6a7	-0.041220333
168	0x3c707efe	0.014678715
169	0x3d9bb56e	0.07602964
170	0x3d1a831f	0.037722703
171	0xbd81c469	-0.063362904
172	0xbda02398	-0.07819289
173	0x3cbd070d	0.023074651
174	0xbbaffcde	-0.0053707203
175	0xbc1eab2c	-0.009684365
176	0x3d695752	0.05696804
177	0x3dab455c	0.083628386
178	0x3d8f5ecf	0.07000505
179	0xbd6a5186	-0.057206653
180	0xbd329493	-0.043598723
181	0x3da55dd0	0.08074534
182	0x3d7b0d55	0.06129201
183	0xbdad8b97	-0.0847389
184	0xbc4d4411	-0.012528435
185	0x3d82f715	0.063947834
186	0xbc50cd62	-0.01274428
187	0xbc2f7bc6	-0.010710662
188	0xbd36f2c9	-0.04466513
189	0x3bab1f63	0.0052222474
190	0x3d4bd4fd	0.04976367
191	0xbc1a9502	-0.00943494
192	0xbcbe490d	-0.023228193
193	0x3d7b5ab7	0.06136581
194	0xbd820d2c	-0.063501686
195	0xbd18c7c1	-0.037299875
196	0xbbd93b62	-0.0066293934
197	0x3d767e00	0.060178757
198	0xbd998263	-0.074955724
199	0xbcb2c749	-0.021823542
200	0x3c84923b	0.01618301
201	0x3b02f4fe	0.0019982453
202	0x3d4a8068	0.049438864
203	0x3da4744f	0.080299966
204	0x3cf43815	0.029811898
205	0xbda641d0	-0.081180215
206	0xbd8dffaa	-0.0693353
207	0xbcf2e65f	-0.029650865
208	0xbcb28006	-0.021789562
209	0x3da12611	0.07868589
210	0x3d2eb004	0.04264833
211	0xbc485066	-0.0122262
212	0x3d8665e3	0.06562402
213	0xbd5299c7	-0.051416185
214	0xbc3d5a8e	-0.011557234
215	0xbdb3b53f	-0.08774804
216	0x3c46f6a0	0.012143761
217	0x3c9bb6b4	0.019008018
218	0x3daff81b	0.08592244
219	0xbd5d024f	-0.05395728
220	0x3d0a9104	0.033829704
221	0x3d77d17d	0.060502518
222	0xbcc41e5f	-0.023940263
223	0x3cdedd10	0.02720502
224	0x3cfdf23f	0.030999301
225	0xbd9d34bd	-0.07676075
226	0xbd4b9578	-0.04970309
227	0x3d92a3c6	0.071601436
228	0x3bab457b	0.0052267886
229	0xbdb14825	-0.086563386
230	0x3d57e404	0.052707687
231	0xbd5ac82c	-0.053413555
232	0x3da16907	0.078813605
233	0xbd92ef53	-0.07174554
234	0x3d3c07cc	0.045905873
235	0x3d57624c	0.052583978
236	0x3daf8fd8	0.08572358
237	0x3d89bca1	0.06725431
238	0xbd19c538	-0.037541598
239	0x3d9c5d97	0.07635038
240	0x3ca864be	0.02055585
241	0x3d8cca14	0.06874481
242	0xbdb19f08	-0.08672911
243	0xbda55e31	-0.08074606
244	0xbc710bcb	-0.014712284
245	0x3d382510	0.04495722
246	0xbc46db50	-0.012137249
247	0xbda94fb2	-0.08267154
248	0xbd73a980	-0.05948782
249	0x3d485b8f	0.048915442
250	0x3d1bf729	0.038077507
251	0xbd4cc833	-0.049995612
252	0x3aba4c95	0.0014213497
253	0xba3029db	-0.0006720104
254	0xbd5dc926	-0.05414691
255	0xbd3e0848	-0.046394616
