tests/fixtures/rmsnorm_weights.pt (torch, 1540 bytes, 1 tensors)

weight f4 [64]
0.737545 0.70745784 0.9109001 0.35083312 0.1668356 0.08803052 0.81393814 0.7822723
0.7630507 0.8036887 0.74444056 0.10243261 0.80360854 0.9900896 0.9594498 0.9027061
0.8715877 0.68156654 0.04761356 0.4881987 0.9297162 0.9257435 0.053855658 0.36363596
0.23948294 0.2859679 0.6838315 0.8819604 0.7970972 0.5144928 0.24205017 0.7865208
0.05812317 0.8785644 0.054697633 0.40789407 0.51110715 0.8355352 0.9783879 0.69127256
0.7500844 0.603978 0.14080822 0.52278495 0.2105155 0.54756016 0.08728951 0.38515437
0.91674984 0.15533715 0.79022616 0.0367983 0.20313191 0.7736177 0.28609776 0.4670146
0.34246916 0.20937842 0.13286376 0.030762434 0.5423697 0.7168977 0.2400648 0.0034338832
00000000: c0cf 3c3f f51b 353f c030 693f 66a0 b33e
00000010: f4d6 2a3e 5849 b43d 405e 503f ff42 483f
00000020: 4a57 433f 8bbe 4d3f a893 3e3f 30c8 d13d
00000030: 4ab9 4d3f 8376 7d3f 819e 753f bf17 673f
00000040: 5f20 5f3f 257b 2e3f 7006 433d 2ef5 f93e
00000050: e201 6e3f 87fd 6c3f c097 5c3d 7e2e ba3e
00000060: 043b 753e 626a 923e 950f 2f3f 28c8 613f
00000070: 900e 4c3f cdb5 033f 00dc 773e 6d59 493f
00000080: 9012 6e3d 99e9 603f a00a 603d 7ed7 d03e
00000090: ebd7 023f a3e5 553f a177 7a3f 3df7 303f
000000a0: 8805 403f 4d9e 1a3f 0830 103e 3cd5 053f
000000b0: 6091 573e e72c 0c3f d8c4 b23d f432 c53e
000000c0: 1eb0 6a3f b410 1f3e 434c 4a3f d0b9 163d
000000d0: d001 503e cf0b 463f 687b 923e 8a1c ef3e
000000e0: 1e58 af3e 4c67 563e 700d 083e 8001 fc3c
000000f0: bed8 0a3f 9c86 373f 8cd3 753e 000b 613b
