tests/fixtures/transformer_block_weights.pt (torch, 200728 bytes, 8 tensors)

attn.q_proj.weight f4 [64, 64]
0.095567316 0.10375099 -0.02928406 0.11482641 -0.027387947 0.025223836 -0.06085688 0.07341033
0.110192865 -0.09170352 0.10864952 0.023394912 0.09235111 0.016928822 0.060273513 -0.017648876
0.09636073 0.018476114 -0.05835499 0.03186229 -0.05759208 -0.014659107 -0.05076979 0.08292137
-0.09867127 -0.057626292 -0.035296842 -0.07515906 0.01179789 -0.12345989 0.112888634 -0.10618353
0.09650342 0.020802394 -0.040588066 0.077243745 0.019481346 0.10099542 0.013664961 -0.039421648
0.03358546 -0.03389743 0.052607194 0.11160277 0.072257444 -0.054646567 0.07215808 0.022365779
0.06347938 -0.07618813 -0.12373856 -0.048295066 -0.095877856 0.10256736 0.036003917 0.051776692
0.039532647 -0.0021744967 0.097826034 -0.0888142 0.0078704655 -0.08531752 0.038544 -0.043047786
0.038302034 -0.026042685 0.10367398 -0.07408774 -0.07454975 -0.07455425 0.11243035 0.04165639
0.12028134 -0.10315953 -0.123984516 -0.09779547 -0.084086135 0.050630018 0.044759482 0.10386555
-0.06455317 -0.085213974 0.06632227 -0.05052556 0.07586548 -0.02966258 0.07150574 -0.097121
-0.06308122 0.038109556 0.026425943 -0.031869844 0.07450868 0.08497615 -0.09064667 -0.066733524
0.11445774 -0.042179063 -0.04431455 -0.12094933 -0.07158378 0.031225458 -0.016499147 -0.09073575
0.0029320866 -0.08538519 -0.10604958 -0.06883283 -0.10940151 -0.07959226 0.12495111 0.02360937
0.038519964 -0.11658554 -0.082096726 -0.041606978 0.01954639 -0.109990165 -0.05385913 -0.07483357
0.0003464073 -0.0465129 -0.0086619705 -0.08470371 -0.085799396 -0.072925225 -0.04278718 -0.09866011
0.10480873 -0.024808004 0.10754959 0.03894776 -0.10584962 0.0865044 -0.034393102 -0.047915757
-0.10375881 -0.12427008 0.03576383 -0.027305484 0.04866539 -0.10258293 0.09280364 -0.09175672
-0.021584168 0.026108712 0.064531475 0.10091379 0.113869905 -0.09911527 0.031458408 -0.053765744
-0.013698101 -0.09356126 0.11385733 -0.09174381 0.066806406 0.04392995 0.040619493 -0.067580774
0.11361894 0.0274688 0.016080007 -0.11015685 0.05247356 -0.018752575 -0.057265535 0.10736832
0.027868599 -0.06915955 -0.063267365 -0.005969465 0.06979516 -0.031941727 -0.07132186 -0.04280536
-0.093384355 0.04457906 0.09675503 -0.11768004 0.029031336 0.06457397 0.022666171 -0.04451558
0.06524277 0.06568915 0.046740904 -0.021965176 -0.033100158 0.013372615 -0.022081763 -0.03725013
0.07990086 0.107424945 -0.012374669 -0.027987108 0.0018240362 -0.0074635297 0.03005141 0.035029203
-0.113532096 -0.04612972 0.10526618 0.048694372 -0.0062171966 -0.07536322 -0.076475635 -0.11197086
-0.040745303 0.042213023 0.079702705 0.057712168 -0.110493004 -0.07517031 -0.019727081 0.12091869
0.018082187 -0.032371342 0.051714405 -0.047610193 -0.08090696 0.091235906 -0.056837723 -0.025058344
-0.12435053 0.08365883 0.09470433 0.045556024 -0.087159276 -0.12336749 -0.10152237 0.09321253
0.06001322 0.10518806 0.065483734 0.03163652 -0.0012240857 -0.095063254 -0.10709652 -0.11691858
0.051170245 -0.061371 -0.025156572 -0.07193816 -0.022777945 -0.08797936 -0.08167696 0.041463852
-0.03714955 0.0771679 -0.040101096 -0.091695905 -0.022054866 -0.060593426 -0.038242698 -0.11899945
00000000: ccb8 c33d 667b d43d 20e5 efbc 1c2a eb3d
00000010: b05c e0bc 38a2 ce3c 1045 79bd 2858 963d
00000020: ccac e13d 0ecf bbbd a483 de3d b0a6 bf3c
00000030: 9422 bd3d 50ae 8a3c 5ce1 763d 6094 90bc
00000040: c658 c53d 385b 973c a405 6fbd 0882 023d
00000050: ace5 6bbd c02c 70bc fcf3 4fbd aed2 a93d
00000060: 2a14 cabd 8c09 6cbd 6c93 10bd feec 99bd
00000070: f04b 413c 8ad8 fcbd 2832 e73d c076 d9bd
00000080: 96a3 c53d c869 aa3c ac3f 26bd f831 9e3d
00000090: 5897 9f3c b0d6 ce3d 00e3 5f3c 9878 21bd
000000a0: e890 093d 08d8 0abd a47a 573d fe8f e43d
000000b0: b6fb 933d 14d5 5fbd 9ec7 933d 7038 b73c
000000c0: 7a01 823d 8608 9cbd a46a fdbd 0cd1 45bd
000000d0: 9c5b c4bd d60e d23d d878 133d cc13 543d
000000e0: fcec 213d 0082 0ebb 0459 c83d 38e4 b5bd
000000f0: 20f3 003c f4ba aebd 50e0 1d3d e052 30bd
00000100: 98e2 1c3d 7857 d5bc 0653 d43d 50bb 97bd
00000110: 8aad 98bd e6af 98bd e241 e63d e49f 2a3d
00000120: 1056 f63d 4e45 d3bd 98eb fdbd fe48 c8bd
00000130: 5a35 acbd 6c61 4f3d b855 373d 76b7 d43d
00000140: 7434 84bd aa84 aebd f8d3 873d e4f3 4ebd
00000150: 5c5f 9b3d f0fe f2bc 9a71 923d 60e7 c6bd
00000160: ba30 81bd c418 1c3d 387b d83c f489 02bd
00000170: 0298 983d fa07 ae3d f6a4 b9bd 96ab 88bd
00000180: d268 ea3d f4c3 2cbd 2c83 35bd 48b4 f7bd
00000190: 849a 92bd 88cc ff3c 3829 87bc aad3 b9bd
000001a0: 4028 403b 6ede aebd 8630 d9bd 3af8 8cbd
000001b0: e60d e0bd 4401 a3bd 5ee6 ff3d 7068 c13c
000001c0: 1cc7 1d3d 66c4 eebd 5422 a8bd 146c 2abd
000001d0: c01f a03c 8642 e1bd 649b 5cbd 5842 99bd
000001e0: 009e b539 5084 3ebd f0ea 0dbc 2479 adbd
000001f0: 98b7 afbd d259 95bd 9c41 2fbd 500e cabd
00000200: f6a5 d63d 283a cbbc f642 dc3d b087 1f3d
00000210: b0c7 d8bd 3829 b13d c8df 0cbd 5043 44bd
00000220: 807f d4bd 5081 febd 187d 123d c0af dfbc
00000230: 5c55 473d 0017 d2bd d60f be3d f2ea bbbd
00000240: 48d1 b0bc f0e1 d53c 1429 843d e4ab ce3d
00000250: a034 e93d f2fc cabd 88da 003d 7839 5cbd
00000260: 006e 60bc 0c9d bfbd 082e e93d 2ee4 bbbd
00000270: ccd1 883d e4ef 333d a060 263d ca67 8abd
00000280: 0cb1 e83d 4006 e13c 38ba 833c ea99 e1bd
00000290: 84ee 563d 009f 99bc 448f 6abd ece3 db3d
000002a0: b04c e43c 86a3 8dbd 5292 81bd 809b c3bb
000002b0: c4f0 8e3d 54d5 02bd 3211 92bd ac54 2fbd
000002c0: 4c40 bfbd 8898 363d 8027 c63d 3c02 f1bd
000002d0: 20d3 ed3c 5c3f 843d 68ae b93c f855 36bd
000002e0: 009e 853d 0888 863d 6473 3f3d 50f0 b3bc
000002f0: 0894 07bd d018 5b3c d0e4 b4bc 9893 18bd
00000300: 10a3 a33d 9c01 dc3d 20bf 4abc 3845 e5bc
00000310: 8014 ef3a a090 f4bb 602e f63c c87a 0f3d
00000320: 8483 e8bd 84f2 3cbd cc95 d73d c073 473d
00000330: a0b9 cbbb 0858 9abd 429f 9cbd fa50 e5bd
00000340: 8ce4 26bd 90e7 2c3d 2c3b a33d 9863 6c3d
00000350: 284a e2bd e4f2 99bd b09a a1bc 38a4 f73d
00000360: 1821 943c d097 04bd 7cd2 533d e802 43bd
00000370: 8cb2 a5bd e4d9 ba3d acce 68bd 2847 cdbc
00000380: 7eab febd 5255 ab3d 58f4 c13d f498 3a3d
00000390: 9080 b2bd 18a8 fcbd f6ea cfbd 36e6 be3d
000003a0: 6cd0 753d d66c d73d 561c 863d 4c95 013d
000003b0: 8071 a0ba 86b0 c2bd 6c55 dbbd 0273 efbd
000003c0: e497 513d 2860 7bbd 2815 cebc 5054 93bd
000003d0: d098 babc 862e b4bd 4046 a7bd 00d6 293d
000003e0: 202a 18bd 340a 9e3d 0c41 24bd 10cb bbbd
000003f0: 68ac b4bc d030 78bd 60a4 1cbd fcb5 f3bd

attn.k_proj.weight f4 [64, 64]
-0.088554144 0.10061027 0.105422094 0.09841128 -0.04375927 0.07779838 -0.10443783 0.05735506
-0.015429199 -0.10358423 -0.100318894 -0.116973564 0.023423895 -0.045210958 -0.057570443 0.11900057
-0.038084492 0.042162165 -0.022005334 0.075384885 0.037301958 0.07915744 0.032639816 -0.027396038
0.110478744 -0.008911401 -0.07483043 0.03889902 -0.0151682645 -0.09270391 0.016351834 -0.029043645
-0.049778953 -0.05965826 -0.05319503 -0.050620317 0.012282357 0.12075852 -0.07326689 -0.05831498
-0.08379336 -0.0047432035 0.008764237 -0.08579917 0.0570962 -0.112108424 0.11569531 0.02352354
-0.012598172 -0.044758216 0.056124985 0.09127924 -0.08176105 -0.03133221 0.09201948 -0.023425862
-0.092042536 -0.04017073 0.0043178797 -0.02333583 -0.08566199 -0.07831152 0.03379859 0.08576751
0.11371514 -0.01412867 0.048094153 -0.09927763 0.066608384 0.11944392 0.065093145 -0.049422577
0.10191488 -0.118384704 -0.014999583 -0.030971974 -0.124683306 -0.07130948 -0.09107323 0.033596367
-0.010397553 0.057409197 -0.02811931 0.103109986 0.014158517 0.10361773 0.101506025 -0.10600647
-0.08394636 0.075290844 0.118096486 -0.10668935 0.0018294901 -0.04805763 0.11768286 0.10384047
0.09097533 0.067267954 -0.011725128 0.115342245 -0.058493763 0.0061780214 -0.032889634 -0.09118822
-0.059235826 0.030307487 -0.01115264 -0.082806334 -0.015891418 0.021588251 -0.08745642 0.07549198
-0.10627349 0.0011959225 -0.10225287 -0.11271931 -0.015527695 0.11344689 0.11816791 0.044926077
0.096887365 -0.06833109 0.07037412 0.076270655 -0.11946249 -0.095791414 0.05400276 0.011550754
-0.08461 -0.09864034 0.09034115 0.013655171 -0.00027664006 -0.12083937 0.109674126 -0.08263248
0.05569844 -0.015030429 0.0040732175 0.06137629 -0.033298656 -0.035068244 0.099647984 -0.09578502
0.05562608 -0.03225884 -0.04176645 0.08367714 0.021103129 -0.11637688 0.11170289 -0.06202537
0.10806069 -0.039230525 0.121879876 0.036875203 -0.006038487 0.047716632 -0.0038871318 -0.061997965
0.06837614 0.08107747 -0.015659839 0.11757746 0.007938236 -0.06610681 -0.06811866 0.084103644
-0.050635934 0.07895091 -0.1214242 0.0043058842 -0.0863682 0.044340417 0.10151531 0.049188986
-0.04297833 -0.11726384 -0.059225023 -0.0737271 0.11936468 -0.06720789 0.048331678 0.10034573
0.045064732 -0.10968821 -0.01419948 -0.037099764 0.08053902 -0.0117255 -0.0065930635 0.1111964
0.029745251 0.057944313 -0.04023865 0.08174674 0.017972633 -0.025109172 0.024089158 -0.0983931
0.0045962483 0.05732663 -0.117048234 -0.0663975 0.07831518 0.0028347522 -0.0042577833 0.012756094
-0.056102455 0.10336535 -0.0123940855 -0.045513734 0.065798715 -0.104043484 -0.023056686 0.012598544
-0.038792804 0.0680318 -0.10674989 -0.0360367 -0.052537233 0.11566664 0.049885646 -0.09324536
0.048445582 -0.0026508868 0.11442827 0.06898306 -0.073003456 0.11142373 -0.022356927 -0.028463677
0.03737846 0.124188855 0.03771612 -0.12060794 -0.039903134 0.116398335 -0.04405661 -0.060136855
-0.099635854 -0.06900166 -0.06834315 0.029853374 0.04994069 0.11929689 0.08203356 0.0018469989
0.06741199 0.0714484 -0.10781562 0.063074395 -0.08550842 0.0965271 -0.054367915 0.025935978
00000000: e05b b5bd c20c ce3d 8ae7 d73d da8b c93d
00000010: ec3c 33bd c254 9f3d 80e3 d5bd 24ed 6a3d
00000020: c0ca 7cbc f823 d4bd fe73 cdbd d68f efbd
00000030: 78e3 bf3c 202f 39bd fcce 6bbd 92b6 f33d
00000040: 7cfe 1bbd 3cb2 2c3d 8844 b4bc 6463 9a3d
00000050: f0c9 183d 4c1d a23d 54b1 053d a86d e0bc
00000060: ae42 e23d 2001 12bc b240 99bd 9454 1f3d
00000070: 5084 78bc 8cdb bdbd 48f4 853c f0ec edbc
00000080: 04e5 4bbd 385c 74bd 08e3 59bd 4057 4fbd
00000090: f03b 493c 3e50 f73d f40c 96bd b0db 6ebd
000000a0: da9b abbd e06c 9bbb e097 0f3c 7ab7 afbd
000000b0: b4dd 693d 1a99 e5bd aaf1 ec3d 70b4 c03c
000000c0: 9068 4ebc 6454 37bd 50e3 653d 9cf0 ba3d
000000d0: 5672 a7bd 3456 00bd b674 bc3d 98e7 bfbc
000000e0: cc80 bcbd 108a 24bd 007d 8d3b c82a bfbc
000000f0: 8e6f afbd ca61 a0bd 6470 0a3d e0a6 af3d
00000100: 7ce3 e83d f07b 67bc 60fe 443d 1252 cbbd
00000110: fa69 883d 049f f43d 8e4f 853d 546f 4abd
00000120: c0b8 d03d ae73 f2bd d0c0 75bc f0b8 fdbc
00000130: f659 ffbd b40a 92bd 9a84 babd 589c 093d
00000140: 805a 2abc e825 6b3d 785a e6bc 542b d33d
00000150: 20f9 673c 8835 d43d 64e2 cf3d ec19 d9bd
00000160: 12ec abbd 1632 9a3d 92dc f13d f27f dabd
00000170: 80cb ef3a 14d8 44bd b603 f13d 50aa d43d
00000180: 4651 ba3d c8c3 893d c01a 40bc 8e38 ec3d
00000190: 2897 6fbd 0071 ca3b 48b7 06bd e4c0 babd
000001a0: 44a1 72bd 6847 f83c 90b9 36bc 5e96 a9bd
000001b0: b82e 82bc d8d9 b03c 5a1c b3bd 8a9b 9a3d
000001c0: eaa5 d9bd 80c0 9c3a f469 d1bd 62d9 e6bd
000001d0: e067 7ebc d856 e83d 0402 f23d 6804 383d
000001e0: e26c c63d 2cf1 8bbd 4e20 903d ca33 9c3d
000001f0: c0a8 f4bd 4a2e c4bd 0032 5d3d 603f 3d3c
00000200: 0248 adbd f203 cabd c804 b93d f0b9 5f3c
00000210: 000a 91b9 a27a f7bd d49c e03d 383b a9bd
00000220: 0c24 643d 3042 76bc a078 853b b465 7b3d
00000230: 2c64 08bd b8a3 0fbd 3e14 cc3d f02a c4bd
00000240: 2cd8 633d d821 04bd 4c13 2bbd ec5e ab3d
00000250: 78e0 ac3c 0057 eebd 7cc4 e43d 500e 7ebd
00000260: ec4e dd3d 30b0 20bd 289c f93d 740a 173d
00000270: 80de c5bb 8472 433d 40bf 7ebb 94f1 7dbd
00000280: ca08 8c3d f20b a63d 1049 80bc 74cc f03d
00000290: 600f 023c 0263 87bd cc81 8bbd 883e ac3d
000002a0: a067 4fbd 04b1 a13d 40ad f8bd 6018 8d3b
000002b0: d0e1 b0bd 4c9e 353d 42e7 cf3d 647a 493d
000002c0: 0c0a 30bd 0628 f0bd f095 72bd 3cfe 96bd
000002d0: 7875 f43d 4aa4 89bd 70f7 453d 1082 cd3d
000002e0: cc95 383d 36a4 e0bd f0a4 68bc ecf5 17bd
000002f0: a4f1 a43d 501c 40bc a00a d8bb f0ba e33d
00000300: 50ac f33c 0457 6d3d 48d1 24bd d66a a73d
00000310: 583b 933c c0b1 cdbc a056 c53c 5282 c9bd
00000320: 209c 963b 54cf 6a3d fcb6 efbd 6afb 87bd
00000330: b663 a03d 40c7 393b e084 8bbb f0fe 503c
00000340: b0cb 65bd 36b1 d33d 9010 4bbc 9c6c 3abd
00000350: 7ac1 863d c014 d5bd 60e1 bcbc 206a 4e3c
00000360: 34e5 1ebd 4254 8b3d b09f dabd 389b 13bd
00000370: 4831 57bd a2e2 ec3d e454 4c3d 6cf7 bebd
00000380: e06e 463d 80ba 2dbb 5e59 ea3d fe46 8d3d
00000390: d682 95bd 2032 e43d e025 b7bc a82c e9bc
000003a0: 281a 193d ba56 fe3d 387c 1a3d 4c01 f7bd
000003b0: 7871 23bd 4062 ee3d b474 34bd 1052 76bd
000003c0: e20d ccbd be50 8dbd 7ef7 8bbd 108f f43c
000003d0: 9c8e 4c3d ee51 f43d 3601 a83d 0017 f23a
000003e0: 4c0f 8a3d 8a53 923d 70ce dcbd 262d 813d
000003f0: 0a1f afbd 00b0 c53d e4b0 5ebd b077 d43c

attn.v_proj.weight f4 [64, 64]
0.00067436695 -0.020133838 0.09731816 0.007484317 -0.075138554 0.014002547 -0.092456535 0.018662065
0.0330209 -0.11785029 -0.085505486 -0.06278345 -0.04370697 -0.022710279 0.052420005 -0.098663494
0.06464997 -0.086648926 0.10976645 -0.071341634 -0.09562568 0.08958723 0.10167354 -0.04235056
0.10959642 0.014077723 0.045397207 -0.007334426 -0.034147322 -0.045214087 -0.10717358 0.09123069
0.06622137 0.11356516 -0.122881696 0.123502314 0.083368555 0.03408371 -0.053651616 0.08820583
0.08015631 0.10757913 -0.10320552 0.018999413 0.045013294 -0.12296383 0.117004916 0.07802838
-0.10038133 -0.10731475 0.0050994903 0.10025975 0.03629802 0.017577112 -0.008097127 -0.1242
0.07523668 0.07972859 -0.087892056 -0.023026764 0.121523425 -0.047910407 -0.085822806 0.07150705
0.05774215 0.10767588 -0.05382587 0.030393302 0.03009215 0.101705775 0.07004824 0.029372275
-0.017586663 -0.022298515 -0.06745757 0.052577764 0.106528476 -0.0635418 -0.08541921 0.09307404
0.016795233 -0.058923557 0.08094619 -0.10184741 -0.061416924 -0.04016748 -0.003980443 0.026646554
0.059779257 -0.043647096 -0.012118831 -0.06519297 -0.08219083 0.027273417 0.09217322 0.107868984
-0.097557336 0.059151337 -0.038565144 -0.006229341 -0.0052168965 0.107967764 0.10474186 -0.10121408
0.027108774 0.07310103 0.03353682 -0.0028961152 -0.05900839 -0.088195175 -0.123034 -0.0024225116
-0.04822877 0.029500514 -0.052844763 0.10382788 -0.08819458 0.11091776 -0.049561664 0.019320443
-0.04583803 0.052685246 0.098646745 0.116880596 -0.086574644 0.085810944 0.08267644 -0.10257524
0.05052483 0.024166524 0.06860836 0.10951993 0.0028594732 -0.046270877 -0.05633895 0.01614286
-0.018342316 -0.08952612 0.0034865588 0.0715746 0.0041440725 0.07858382 -0.047222286 0.098032
0.029780671 -0.042008713 0.060269684 0.061471447 -0.053595394 -0.022736937 0.06451389 -0.11016004
0.04762779 0.02740398 -0.08520657 -0.015410587 0.03658618 0.08695243 0.091409236 -0.08063479
-0.08127527 0.059111625 0.123324394 0.10674855 0.049225703 0.11852151 -0.057386667 -0.0035381317
-0.10196185 -0.076710686 -0.08453518 -0.11339064 0.035267904 0.032287702 0.050323904 0.08284162
-0.09956476 -0.036077023 0.09836009 -0.110623434 0.08785489 0.038493216 -0.10147914 0.02696769
0.0040160865 0.024142548 -0.035864174 0.056583688 0.09721482 0.08712253 -0.011997178 -0.11498663
0.122375324 0.034786493 0.11094816 0.04502812 0.0020548701 0.067263275 0.069956005 -0.008088887
0.019137308 -0.0050746202 0.08564885 0.056907102 -0.020842746 0.116487235 0.11978036 0.101545036
0.022397354 0.007645279 -0.06527397 0.09112464 -0.089813426 -0.107739344 0.037716523 -0.11693059
0.03985189 -0.060201854 -0.0015712827 -0.048158318 0.10107866 -0.092909634 0.022962973 0.0017720461
-0.11894198 0.09665571 0.024722368 -0.10030009 -0.12406102 0.0552738 0.102611706 -0.02848509
-0.036926776 -0.10659137 0.08441086 -0.04709229 -0.05745469 0.047562256 0.109320074 0.057853848
0.036053255 0.110635296 0.0053164065 0.019336969 -0.009133354 -0.0783252 0.02296324 -0.06491299
0.0723377 -0.08622193 -0.10217415 -0.0241514 0.092858315 -0.09497306 -0.039837256 -0.009577647
00000000: 00c8 303a b8ef a4bc be4e c73d 003f f53b
00000010: 3ee2 99bd f06a 653c da59 bdbd 30e1 983c
00000020: ec40 073d 7e5b f1bd 801d afbd 9c94 80bd
00000030: 1406 33bd e80a babc 5cb6 563d 1610 cabd
00000040: 3467 843d fe74 b1bd 3ccd e03d 901b 92bd
00000050: 66d7 c3bd 8279 b73d 383a d03d c877 2dbd
00000060: 1674 e03d 40a6 663c 6cf2 393d a055 f0bb
00000070: 10de 0bbd 6832 39bd d27d dbbd 28d7 ba3d
00000080: 129f 873d da94 e83d 66a9 fbbd c8ee fc3d
00000090: 22bd aa3d 5c9b 0b3d ccc1 5bbd 42a5 b43d
000000a0: fe28 a43d 7252 dc3d 6a5d d3bd a8a4 9b3c
000000b0: dc5f 383d 76d4 fbbd 46a0 ef3d 58cd 9f3d
000000c0: ba94 cdbd d6c7 dbbd a019 a73b fc54 cd3d
000000d0: 3cad 143d e0fd 8f3c d0a9 04bc 925c febd
000000e0: b015 9a3d be48 a33d c000 b4bd a0a2 bcbc
000000f0: 46e1 f83d b43d 44bd dec3 afbd 4a72 923d
00000100: 0883 6c3d 2c85 dc3d 8478 5cbd 60fb f83c
00000110: d083 f63c 1e4b d03d 7475 8f3d 209e f03c
00000120: e811 90bc 60ab b6bc 3227 8abd c85b 573d
00000130: 9a2b da3d 3422 82bd 44f0 aebd 9a9d be3d
00000140: 2896 893c d459 71bd 1ec7 a53d 6095 d0bd
00000150: 5090 7bbd a886 24bd 606e 82bb e049 da3c
00000160: 18db 743d 4cc7 32bd 108e 46bc e483 85bd
00000170: aa53 a8bd 806c df3c 50c5 bc3d 6aea dc3d
00000180: 24cc c7bd ac48 723d 7cf6 1dbd 801f ccbb
00000190: 80f2 aabb 341e dd3d e682 d63d 5449 cfbd
000001a0: 3813 de3c feb5 953d e85d 093d c0cc 3dbb
000001b0: c8b2 71bd ac9f b4bd 40f9 fbbd 00c3 1ebb
000001c0: 888b 45bd 10ab f13c c073 58bd b6a3 d43d
000001d0: 5c9f b4bd da28 e33d 2c01 4bbd e845 9e3c
000001e0: a8c0 3bbd 7ccc 573d 4e07 ca3d 185f ef3d
000001f0: 0c4e b1bd a6bd af3d 4452 a93d f812 d2bd
00000200: 20f3 4e3d e0f8 c53c 8a82 8c3d fc4b e03d
00000210: 0066 3b3b 8886 3dbd acc3 66bd 083e 843c
00000220: a042 96bc 7859 b7bd c07e 643b b495 923d
00000230: 00cb 873b 8ef0 a03d 286c 41bd 00c5 c83d
00000240: 98f6 f33c 5411 2cbd 58dd 763d 7cc9 7b3d
00000250: d886 5bbd d042 babc dc1f 843d 969b e1bd
00000260: 5c15 433d 507e e03c c880 aebd b07c 7cbc
00000270: 64db 153d 1e14 b23d c434 bb3d da23 a5bd
00000280: a673 a6bd 081f 723d 8091 fc3d fc9e da3d
00000290: e4a0 493d 68bb f23d 480e 6bbd 00e0 67bb
000002a0: 60d1 d0bd 7e1a 9dbd c820 adbd 5a39 e8bd
000002b0: 1475 103d 1c40 043d 7020 4e3d dea8 a93d
000002c0: 9ce8 cbbd 80c5 13bd 0471 c93d 8a8e e2bd
000002d0: 44ed b33d 10ab 1d3d 4cd4 cfbd 58eb dc3c
000002e0: 6099 833b 98c6 c53c 50e6 12bd 4cc4 673d
000002f0: 9018 c73d 4c6d b23d d08f 44bc 1c7e ebbd
00000300: ea9f fa3d 487c 0e3d ca38 e33d 686f 383d
00000310: 00ab 063b 54c1 893d 1845 8f3d 4087 04bc
00000320: d8c5 9c3c 0049 a6bb aa68 af3d 6c17 693d
00000330: 68be aabc dc90 ee3d 684f f53d d8f6 cf3d
00000340: a87a b73c 4085 fa3b 5cae 85bd 8e9f ba3d
00000350: 1af0 b7bd 72a6 dcbd a47c 1a3d 4e79 efbd
00000360: bc3b 233d 3896 76bd 80f3 cdba a841 45bd
00000370: 5402 cf3d 6847 bebd d81c bc3c 0044 e83a
00000380: da97 f3bd 6ef3 c53d 9086 ca3c 226a cdbd
00000390: b413 febd c866 623d 1626 d23d 9059 e9bc
000003a0: 8840 17bd 944c dabd 9adf ac3d d8e3 40bd
000003b0: 9c55 6bbd a4d0 423d 34e3 df3d 28f8 6c3d
000003c0: 94ac 133d c294 e23d 4035 ae3b 9068 9e3c
000003d0: 10a4 15bc f668 a0bd 681d bc3c 1af1 84bd
000003e0: ca25 943d 2095 b0bd ae40 d1bd 28d9 c5bc
000003f0: 802c be3d 3c81 c2bd 642c 23bd 90eb 1cbc

attn.output_proj.weight f4 [64, 64]
-0.0027584434 0.043506876 -0.11544147 -0.029068038 -0.09032367 -0.11688404 0.06698783 -0.042942867
-0.11914107 -0.03599727 -0.06903884 0.06757179 -0.0196276 -0.07576211 -0.051094845 -0.027651757
0.09566766 0.011366457 -0.09892158 -0.03236498 0.11519472 -0.10681042 -0.04687062 0.10888326
-0.05041474 0.09521307 -0.08186087 0.09461996 0.082598954 -0.023368135 -0.11595027 -0.0422799
0.031306192 -0.04186459 -0.099762276 -0.110481754 0.05952145 0.090105385 -0.047345936 0.0047770143
-0.07651897 0.07217352 -0.08214073 -0.07089318 -0.05089557 -0.02295506 0.015447408 -0.1178374
-0.045713842 -0.05425042 -0.025391683 -0.0071160644 0.005856991 0.063826665 -0.071163386 0.0027272701
0.11359404 0.016034365 -0.092856735 0.08555743 -0.11092804 0.050804213 0.10348828 0.015666202
0.0670481 0.099188015 0.057076976 -0.037551716 0.02717942 0.10110189 0.029308334 -0.099344045
0.1087707 0.121138036 0.07253766 0.067954525 0.07023057 -0.07589392 -0.037519053 0.054025844
0.031836197 0.053118184 -0.0023658276 -0.120461956 0.059249595 -0.0786237 -0.10329649 0.12361656
0.055103377 0.062122732 -0.0547664 0.046063766 0.010623515 0.08526407 0.014622077 0.111722544
-0.02927731 0.115351304 0.12379524 0.014785022 -0.09164891 4.8950315e-05 0.099498585 -0.0854031
-0.044672966 0.0452006 0.025398895 0.11750524 0.020588756 -0.0009559095 0.016428396 -0.025711432
-0.11507614 -0.04384318 -0.11331335 0.091460526 0.007563129 0.014555126 -0.008675262 -0.06413685
-0.08818576 -0.019132808 0.03782028 -0.06840454 -0.077334955 0.08121291 -0.04340051 0.070422366
0.11966635 0.11748831 -0.09664501 0.009271726 -0.09801327 0.005159214 0.017383277 -0.054103076
0.037100896 -0.039186433 0.070426375 0.0011916608 0.08676535 0.08448744 0.027912855 0.023335949
-0.056575343 -0.082545176 0.08427581 0.08248994 0.019602507 0.104877844 0.0652684 0.08165413
-0.023975834 0.017868131 -0.11238673 -0.11421336 0.05943434 -0.07534924 0.0952024 -0.10086289
-0.10347803 -0.10260776 0.08022232 -0.08285445 -0.10719703 0.052802637 -0.025213197 -0.119057044
0.088652864 0.09059684 0.10026716 0.07846677 -0.09690848 -0.05502741 -0.04912336 -0.12156385
0.087353736 -0.050585106 0.042903394 -0.06356266 0.11201443 0.08807744 0.08627157 0.061181337
0.10463308 0.040868685 0.021360546 -0.028185263 0.10157493 -0.120613724 0.08927545 -0.011827141
-0.008275092 -0.08217707 -0.054651543 0.023579136 -0.050936088 0.04450062 0.017609492 -0.10640705
0.06831811 -0.055036753 -0.0451629 -0.046004653 0.049389586 -0.123257935 -0.09008442 0.05030477
-0.037874416 -0.02371864 -0.11231072 0.012676597 0.058828622 -0.045119673 0.00955376 0.003545016
-0.026469007 0.100822836 0.03218995 0.023759022 -0.00388816 -0.0026196986 0.067123204 0.007189065
0.02828595 0.10144465 0.088382065 -0.04587373 -0.102356225 0.032923892 -0.085374355 -0.12431742
0.085836545 -0.10360214 0.123379186 -0.11515777 -0.10177991 0.07186657 0.009645104 -0.054482207
0.0474464 -0.08121611 -0.06889723 -0.12038119 -0.064028904 -0.10736458 0.10711065 -0.054340452
0.02120839 -0.056183174 -0.028637469 0.09131423 0.025439695 0.06035234 0.04084313 -0.10187748
00000000: 00c7 34bb 4434 323d 946c ecbd 1820 eebc
00000010: 9efb b8bd e660 efbd ea30 893d dce4 2fbd
00000020: 3c00 f4bd e071 13bd 3c64 8dbd 1463 8a3d
00000030: 10ca a0bc 2a29 9bbd d448 51bd f085 e2bc
00000040: 68ed c33d 603a 3a3c 6697 cabd 2491 04bd
00000050: 36eb eb3d 6cbf dabd 68fb 3fbd 30fe de3d
00000060: b07f 4ebd 12ff c23d aca6 a7bd 1cc8 c13d
00000070: a429 a93d 886e bfbc 5677 edbd b02d 2dbd
00000080: ec3a 003d 347a 2bbd 2a50 ccbd 4244 e2bd
00000090: c4cc 733d 2c89 b83d d0ed 41bd 8088 9c3b
000000a0: fab5 9cbd b6cf 933d 6639 a8bd 7230 91bd
000000b0: e077 50bd 400c bcbc 2017 7d3c bc54 f1bd
000000c0: 703e 3bbd b035 5ebd 3802 d0bc e02d e9bb
000000d0: 00ec bf3b 8eb7 823d 1cbe 91bd 00bc 323b
000000e0: fea3 e83d 805a 833c ac2b bebd bc38 af3d
000000f0: 3e2e e3bd 1418 503d aaf1 d33d 6856 803c
00000100: 8450 893d 1623 cb3d 8cc9 693d d4cf 19bd
00000110: 60a7 de3c 820e cf3d 0818 f03c e474 cbbd
00000120: 2cc3 de3d 3817 f83d a08e 943d be2b 8b3d
00000130: 0cd5 8f3d 466e 9bbd 94ad 19bd 344a 5d3d
00000140: ac66 023d 7492 593d 000c 1bbb c2b4 f6bd
00000150: b4af 723d 7605 a1bd 1c8d d3bd ae2a fd3d
00000160: 14b4 613d 6874 7e3d bc52 60bd 5cad 3c3d
00000170: 400e 2e3c ee9e ae3d 7091 6f3c cace e43d
00000180: f8d6 efbc 4e3d ec3d 5c88 fd3d e03c 723c
00000190: 6cb2 bbbd 0050 4d38 eac5 cb3d d2e7 aebd
000001a0: 00fb 36bd 4424 393d 5811 d03c 96a6 f03d
000001b0: c0a9 a83c 0096 7aba d894 863c c8a0 d2bc
000001c0: 0aad ebbd e894 33bd d410 e8bd a84f bb3d
000001d0: 20d4 f73b a078 6e3c b022 0ebc 2e5a 83bd
000001e0: bc9a b4bd 68bc 9cbc 70e9 1a3d ae17 8cbd
000001f0: ca61 9ebd f452 a63d bcc4 31bd 9a39 903d
00000200: a213 f53d b69d f03d d2ed c5bd 70e8 173c
00000210: 2ebb c8bd a00e a93b 6067 8e3c 309b 5dbd
00000220: 1cf7 173d f481 20bd b43b 903d 8031 9c3a
00000230: 08b2 b13d c007 ad3d 80a9 e43c 082b bf3c
00000240: 8cbb 67bd 720d a9bd cc98 ac3d 7cf0 a83d
00000250: 7095 a03c 32ca d63d 70ab 853d 483a a73d
00000260: f868 c4bc 3060 923c 042b e6bd b2e8 e9bd
00000270: 6c71 733d b450 9abd 7af9 c23d 3491 cebd
00000280: 4aec d3bd 0424 d2bd 9a4b a43d 98af a9bd
00000290: 1e8a dbbd 9447 583d e88b cebc 2ed4 f3bd
000002a0: a28f b53d d68a b93d de58 cd3d 30b3 a03d
000002b0: f477 c6bd 6c64 61bd 9435 49bd 78f6 f8bd
000002c0: 84e6 b23d 5432 4fbd 78bb 2f3d 242d 82bd
000002d0: d267 e53d f261 b43d 26af b03d 4899 7a3d
000002e0: de49 d63d ec65 273d 50fc ae3c c8e4 e6bc
000002f0: 8406 d03d 5404 f7bd 0cd6 b63d a0c6 41bc
00000300: 4094 07bc 744c a8bd 4cda 5fbd 0829 c13c
00000310: 5ca2 50bd 4846 363d c841 903c f0eb d9bd
00000320: 5eea 8b3d 386e 61bd bcfc 38bd 606f 3cbd
00000330: bc4c 4a3d a86e fcbd 2e7e b8bd 600c 4e3d
00000340: 3422 1bbd 984d c2bc 2a03 e6bd 80b1 4f3c
00000350: 48f6 703d 68cf 38bd 6087 1c3c 8053 683b
00000360: 88d5 d8bc 347c ce3d 9cd9 033d 48a2 c23c
00000370: 80d0 7ebb 40af 2bbb e477 893d 4092 eb3b
00000380: f0b7 e73c 36c2 cf3d a801 b53d 18e6 3bbd
00000390: 24a0 d1bd 34db 063d c0d8 aebd 229a febd
000003a0: 12cb af3d 5c2d d4bd 3aae fc3d d6d7 ebbd
000003b0: fc71 d0bd c82e 933d 8006 1e3c bc28 5fbd
000003c0: 2857 423d a254 a6bd fe19 8dbd 6a8a f6bd
000003d0: 9621 83bd f6e1 dbbd d45c db3d 1894 5ebd
000003e0: 38bd ad3c 5420 66bd 2099 eabc f402 bb3d
000003f0: e866 d03c 0434 773d 204b 273d 24a5 d0bd

ln1.weight f4 [64]
1.0 1.0 1.0 1.0 1.0 1.0 1.0 1.0
1.0 1.0 1.0 1.0 1.0 1.0 1.0 1.0
1.0 1.0 1.0 1.0 1.0 1.0 1.0 1.0
1.0 1.0 1.0 1.0 1.0 1.0 1.0 1.0
1.0 1.0 1.0 1.0 1.0 1.0 1.0 1.0
1.0 1.0 1.0 1.0 1.0 1.0 1.0 1.0
1.0 1.0 1.0 1.0 1.0 1.0 1.0 1.0
1.0 1.0 1.0 1.0 1.0 1.0 1.0 1.0
00000000: 0000 803f 0000 803f 0000 803f 0000 803f
00000010: 0000 803f 0000 803f 0000 803f 0000 803f
00000020: 0000 803f 0000 803f 0000 803f 0000 803f
00000030: 0000 803f 0000 803f 0000 803f 0000 803f
00000040: 0000 803f 0000 803f 0000 803f 0000 803f
00000050: 0000 803f 0000 803f 0000 803f 0000 803f
00000060: 0000 803f 0000 803f 0000 803f 0000 803f
00000070: 0000 803f 0000 803f 0000 803f 0000 803f
00000080: 0000 803f 0000 803f 0000 803f 0000 803f
00000090: 0000 803f 0000 803f 0000 803f 0000 803f
000000a0: 0000 803f 0000 803f 0000 803f 0000 803f
000000b0: 0000 803f 0000 803f 0000 803f 0000 803f
000000c0: 0000 803f 0000 803f 0000 803f 0000 803f
000000d0: 0000 803f 0000 803f 0000 803f 0000 803f
000000e0: 0000 803f 0000 803f 0000 803f 0000 803f
000000f0: 0000 803f 0000 803f 0000 803f 0000 803f

ffn.w1.weight f4 [256, 64]
0.06554848 0.071063295 -0.108918235 -0.108006105 0.0539968 0.07218726 -0.10720135 0.12003623
-0.02754654 -0.10133821 -0.09170681 -0.029000774 0.06578384 -0.08621098 0.092098385 0.124915585
0.1175061 0.056898028 -0.05106303 -0.047519207 0.08975245 -0.026105344 0.01912707 0.12494196
-0.12425655 -0.028544053 -0.04941778 -0.02023387 0.0051488727 -0.027076721 0.12134263 0.050692916
-0.078536496 0.12112197 -0.034694538 0.017999634 0.011668488 -0.091876894 0.06359564 -0.075941816
-0.11136383 0.10492557 0.0748481 -0.052322224 -0.08947158 0.11288141 0.044200227 -0.08297311
-0.10386492 -0.051716536 -0.06946765 0.0088612735 0.011966869 -0.12231606 0.06271805 0.063679636
-0.11327277 0.100501955 -0.049775288 0.064339176 0.122600645 0.07404107 0.083931476 0.0043985546
0.018309593 -0.10633145 -0.090687245 0.10068548 -0.11423908 0.053833872 -0.07365045 0.10836527
0.09222539 -0.028247923 -0.015985414 -0.08671303 0.11658785 -0.07533516 0.044618905 0.08759412
-0.12035954 -0.12294394 -0.08772904 -0.01876451 0.07770915 -0.03804256 -0.051623836 0.08318025
0.10025111 0.06587215 0.10801798 -0.112710044 -0.111474946 0.020768479 -0.10487722 -0.034893483
0.076089144 0.12145974 -0.025121912 -0.110242024 -0.061679497 0.12148 -0.023149312 -0.11625199
-0.06618421 -0.07796648 -0.032628 -0.090501755 -0.04230827 0.11459786 -0.05919689 -0.026857346
0.07018182 -0.11680934 -0.06564827 -0.010620743 0.09829514 0.017385885 -0.00061805546 -0.041477725
0.057888284 -0.053728208 -0.019558147 -0.05387254 0.04672098 0.1246786 -0.094312295 -0.008807436
-0.008859053 -0.0625875 -0.089112654 -0.05331984 -0.09768975 0.0949174 -0.088605896 0.07625371
0.103371486 -0.022970244 0.116304845 0.090325266 -0.08716498 0.0713598 0.032137617 0.098356694
-0.09480889 0.09729317 0.017737359 0.06110491 -0.0693945 0.08231275 -0.008989051 0.103078425
0.010670409 0.0775944 -0.07898989 -0.11078091 0.043413952 0.06621732 0.034596637 0.039271504
0.08233556 -0.06431538 0.066905156 0.059922636 -0.05305755 -0.07435842 -0.12413527 0.09192385
-0.0019271076 0.028582439 -0.08846906 -0.09398246 0.102579236 0.08806962 0.06760168 0.09995891
0.10066098 0.07383667 0.09029019 -0.016057879 0.032556757 -0.107436866 -0.044804007 -0.011678621
-0.0060942024 0.12328318 0.1019918 0.039361894 0.116557285 -0.06372744 0.024303332 -0.099154815
-0.10633069 0.06683175 0.0401344 -0.0067278743 -0.08088003 0.09011106 -0.009589419 0.08533721
-0.08636339 0.096063 -0.005904138 -0.039061964 -0.010318816 -0.09640892 -0.022855595 0.0073241144
-0.09254691 0.067502916 0.11808263 0.064446285 -0.06140326 -0.07767986 -0.09906328 -0.077060044
0.074613184 0.057611123 -0.046750903 0.002047494 -0.019689575 0.0018056184 -0.12430504 0.10563666
-0.04386981 -0.10767746 -0.0022614747 0.037363365 0.057247713 -0.06313726 -0.009128302 -0.093632475
-0.09423211 -0.08252546 -0.07851121 0.07849631 -0.1127523 -0.025949568 -0.05182527 0.082209006
-0.008077443 -0.06878959 0.101503626 -0.0947828 -0.04733096 -0.11405571 -0.009981781 0.03558162
0.10922703 -0.09062827 -0.083427995 0.124916926 0.021995232 -0.08470824 0.0538992 0.12040405
00000000: 483e 863d a289 913d 8610 dfbd 4e32 ddbd
00000010: c02b 5d3d ead6 933d 628c dbbd 8ed5 f53d
00000020: 48a9 e1bc 688a cfbd c8d0 bbbd 0893 edbc
00000030: aeb9 863d 628f b0bd 149e bc3d bed3 ff3d
00000040: 0aa7 f03d e80d 693d 7827 51bd 80a3 42bd
00000050: 22d0 b73d e0da d5bc 60b0 9c3c 92e1 ff3d
00000060: 387a febd 38d5 e9bc 4c6a 4abd 80c1 a5bc
00000070: e0b7 a83b 00d0 ddbc 7c82 f83d 60a3 4f3d
00000080: bed7 a0bd cc0e f83d dc1b 0ebd f873 933c
00000090: 302d 3f3c f429 bcbd 6e3e 823d 6287 9bbd
000000a0: b812 e4bd 38e3 d63d f649 993d d44f 56bd
000000b0: e03c b7bd 5e2e e73d 4c0b 353d ceed a9bd
000000c0: 22b7 d4bd b8d4 53bd 0e45 8ebd e02e 113c
000000d0: b010 443c d880 fabd 5272 803d 786a 823d
000000e0: 8efb e7bd f8d3 cd3d 2ce1 4bbd 42c4 833d
000000f0: 0c16 fb3d d8a2 973d 44e4 ab3d c021 903b
00000100: 00fe 953c 4ec4 d9bd 3cba b9bd 3034 ce3d
00000110: 2ef6 e9bd e880 5c3d 0cd6 96bd 9cee dd3d
00000120: aae0 bc3d 3068 e7bc d8f3 82bc 9a96 b1bd
00000130: 9cc5 ee3d 5249 9abd 50c2 363d 8c64 b33d
00000140: 107f f6bd 08ca fbbd 48ab b3bd 08b8 99bc
00000150: fa25 9f3d 84d2 1bbd 8473 53bd 685a aa3d
00000160: 7450 cd3d fae7 863d 8838 dd3d 86d4 e6bd
00000170: fa4c e4bd a822 aa3c dec9 d6bd 78ec 0ebd
00000180: a0d4 9b3d e2bf f83d 78cc cdbc 92c6 e1bd
00000190: a4a3 7cbd 82ca f83d a0a3 bdbc 8615 eebd
000001a0: 968b 87bd e4ac 9fbd f0a4 05bd fc58 b9bd
000001b0: 704b 2dbd 48b2 ea3d 7078 72bd f003 dcbc
000001c0: 7cbb 8f3d bc39 efbd 9a72 86bd a002 2ebc
000001d0: f64e c93d d86c 8e3c 0005 22ba 8ce4 29bd
000001e0: 441c 6d3d 1c12 5cbd 6838 a0bc 74a9 5cbd
000001f0: 805e 3f3d 7e57 ff3d ce26 c1bd 104d 10bc
00000200: 9025 11bc e02d 80bd b280 b6bd e865 5abd
00000210: 9011 c8bd 0e64 c23d 0277 b5bd e82a 9c3d
00000220: 6eb4 d33d 182c bcbc 3c31 ee3d 74fc b83d
00000230: 8e83 b2bd 1625 923d bca2 033d 3c6f c93d
00000240: 2a2b c2bd a441 c73d f04d 913c 2449 7a3d
00000250: b41e 8ebd 9693 a83d d046 13bc c81a d33d
00000260: f0d2 2e3c d0e9 9e3d 74c5 a1bd 1ae1 e2bd
00000270: d4d2 313d f29c 873d 34b5 0d3d 28db 203d
00000280: 8c9f a83d c8b7 83bd 9205 893d 7071 753d
00000290: e052 59bd 3a49 98bd a23a febd 9242 bc3d
000002a0: 0097 fcba b825 ea3c 442f b5bd e079 c0bd
000002b0: 1015 d23d d85d b43d c072 8a3d 42b7 cc3d
000002c0: 5827 ce3d ae37 973d 10ea b83d d08b 83bc
000002d0: 3c5a 053d dc07 dcbd 6884 37bd b057 3fbc
000002e0: e0b1 c7bb e47b fc3d 14e1 d03d f039 213d
000002f0: 96b5 ee3d 8883 82bd c817 c73c ae11 cbbd
00000300: e8c3 d9bd 16df 883d f863 243d 8075 dcbb
00000310: 6ea4 a5bd 268c b83d f01c 1dbc 46c5 ae3d
00000320: 4adf b0bd aebc c43d 8077 c1bb 70ff 1fbd
00000330: 4010 29bc 0a72 c5bd a83b bbbc 20ff ef3b
00000340: 3c89 bdbd f83e 8a3d 4ed5 f13d 6afc 833d
00000350: fc81 7bbd 9e16 9fbd b0e1 cabd a8d1 9dbd
00000360: ccce 983d a4f9 6b3d e07d 3fbd 402f 063b
00000370: 084c a1bc 80aa ec3a a493 febd 0858 d83d
00000380: d4b0 33bd 0086 dcbd 4035 14bb 540a 193d
00000390: 947c 6a3d 1c4e 81bd e08e 15bc 62c2 bfbd
000003a0: c4fc c0bd 1c03 a9bd 7cca a0bd acc2 a03d
000003b0: aeea e6bd 3094 d4bc bc46 54bd 325d a83d
000003c0: 4057 04bc 8ee1 8cbd 22e1 cf3d 7c1d c2bd
000003d0: 1cde 41bd 0a96 e9bd a08a 23bc 08be 113d
000003e0: 6cb2 df3d 509b b9bd 4cdc aabd 72d4 ff3d
000003f0: 582f b43c 847b adbd 68c5 5c3d 6696 f63d

ffn.w2.weight f4 [64, 256]
0.0035970882 -0.054594614 0.014730938 0.019468807 -0.0077551976 0.034526423 -0.049811818 0.008971527
-0.01746124 -0.0031723306 0.0003773719 0.059673347 -0.018531695 -0.060706787 -0.039043203 -0.024116836
0.051328093 0.018545188 -0.03975463 0.008315295 0.030239254 -0.0070505515 0.0017141476 -0.03984315
0.008096598 -0.05337646 -0.021395534 0.012495033 0.018635534 -0.048770502 -0.0065179393 0.036985867
0.059490837 -0.007773064 0.025787018 0.0037652627 -0.039936095 0.0063647255 -0.03968767 -0.0028373674
-0.049052164 -0.033361092 -0.017596021 -0.005546674 -0.04945583 -0.021254927 -0.061759822 -0.047962032
-0.057974406 -0.041186213 -0.0036351308 0.0410406 0.0028631613 -0.05894746 0.05196771 -0.0419107
-0.026645951 0.015586264 -0.019910738 0.0066586435 -0.016917467 -0.0024343655 -0.05893442 0.0015242472
0.0070114136 0.038191125 8.4117055e-05 0.037296556 0.0015869066 0.030717127 -0.023049057 0.0073119253
0.0008737892 -0.04728605 0.062025107 0.04267758 0.030601382 -0.05159817 0.058610566 0.0590984
-0.0028684288 -0.0066482797 0.052351534 -0.051602982 0.059531704 -0.015847445 -0.02835302 0.0030116737
0.018376663 0.0062885284 0.040229164 -0.05017811 -0.0043486953 -0.0043410957 -0.04306926 -0.047827832
-0.022760332 -0.02158609 0.0048272237 -0.026937872 0.05735796 0.022693485 -0.0305634 -0.0082325265
-0.05377453 0.028681912 -0.031310275 0.048469983 0.033852257 -0.022180572 0.007347092 -0.009920806
-0.052182294 -0.043268874 -0.03333602 0.059554644 -0.043821745 0.028057761 -0.025023758 0.021594435
0.044541292 0.0425274 -0.05314675 0.002780065 0.016461812 0.0075087175 0.0026836768 0.061195754
-0.049097933 0.012828961 0.012859099 0.05185373 0.031923093 -0.02298379 -0.0045385286 -0.046630457
0.005037412 0.00662183 0.05402448 0.055565387 -0.044007197 0.059778526 -0.054710798 0.016613126
0.030985601 0.033749484 0.047890835 -0.016980581 0.053223513 0.006618716 0.0011925846 -0.021281824
-0.054461993 -0.01728651 -0.0020770878 0.0070217177 -0.009529084 -0.003234662 0.0029582754 -0.034672894
-0.0041240677 -0.05324383 0.0030012876 0.0549007 -0.029702395 0.03788524 -0.020341314 -0.027089968
0.029707566 -0.0611626 0.039607033 0.04122577 0.021621905 -0.002094224 -0.029443927 -0.03986211
0.056484915 0.029503472 0.03311985 -0.03906723 0.037396856 -0.0384389 0.047215007 0.04818575
-0.05704926 -0.05837691 -0.055050932 -0.02918683 0.017556623 -0.055681363 0.052596994 -0.04010483
-0.01994162 0.014595829 -0.03532563 -0.0027958974 -0.054276392 -0.055931665 0.0040614307 -0.025262691
0.044689246 -0.035674863 0.03501164 0.045996383 -0.016659848 -0.011726283 0.019512914 -0.03383498
0.017559133 -0.018212415 -0.015519187 -0.049527958 0.050280243 -0.054036565 -0.011278823 0.025464006
-0.0435037 0.005035095 0.06018518 0.018165767 0.043232083 -0.047192268 0.0326235 0.0029673204
0.0072045475 -0.022874206 -0.013684809 0.03821235 0.03824816 -0.0489903 0.05345373 0.059147947
-0.02193629 0.00811933 0.034073427 -0.061049663 0.02300658 0.054867655 -0.017702721 -0.051278204
-0.03867975 0.03983309 -0.0040296093 -0.0033915192 0.009930752 0.021319464 0.036602862 0.0028443336
-0.06081406 0.04086221 0.039307877 0.004320465 -0.034958124 -0.013854109 0.027515404 0.046376012
00000000: 20bd 6b3b 9a9e 5fbd 085a 713c 0c7d 9f3c
00000010: 501f febb 946b 0d3d 7a07 4cbd 50fd 123c
00000020: e00a 8fbc e0e6 4fbb 00da c539 0a6c 743d
00000030: c8cf 97bc aea7 78bd c4eb 1fbd ac90 c5bc
00000040: 683d 523d 14ec 973c c0d5 22bd e03c 083c
00000050: 50b8 f73c 5008 e7bb 40ad e03a 9232 23bd
00000060: 98a7 043c 46a1 5abd b045 afbc f8b7 4c3c
00000070: 8ca9 983c 94c3 47bd 7094 d5bb 7e7e 173d
00000080: aaac 733d 30b5 febb 4c3f d33c a0c2 763b
00000090: 0894 23bd 308f d03b 8a8f 22bd 20f3 39bb
000000a0: ecea 48bd a4a5 08bd 8825 90bc e0c0 b5bb
000000b0: 3292 4abd d01e aebc def7 7cbd d673 44bd
000000c0: 9276 6dbd e0b2 28bd 603b 6ebb 301a 283d
000000d0: e0a3 3b3b e472 71bd 18dc 543d 8eaa 2bbd
000000e0: 9c48 dabc 885d 7f3c d81b a3bc c030 da3b
000000f0: 8096 8abc e089 1fbb 3865 71bd 40c9 c73a
00000100: 00c0 e53b 4c6e 1c3d 0068 b038 46c4 183d
00000110: c0ff cf3a 7ca2 fb3c 60d1 bcbc e098 ef3b
00000120: 000f 653a 04af 41bd 0a0e 7e3d b0ce 2e3d
00000130: c0af fa3c 9a58 53bd a211 703d 2a11 723d
00000140: 40fc 3bbb d0d9 d9bb 906e 563d a65d 53bd
00000150: 84d7 733d 80d2 81bc 9844 e8bc 805f 453b
00000160: a88a 963c 0010 ce3b 56c7 243d 9087 4dbd
00000170: 807f 8ebb c03f 8ebb 6469 30bd 1ee7 43bd
00000180: e073 babc 50d5 b0bc b02d 9e3b d0ac dcbc
00000190: 2ef0 6a3d b0e7 b93c 1860 fabc b8e1 06bc
000001a0: ae42 5cbd 54f6 ea3c 343f 00bd 7688 463d
000001b0: aaa8 0a3d 08b4 b5bc e0bf f03b e08a 22bc
000001c0: 1abd 55bd b43a 31bd 5a8b 08bd 92ef 733d
000001d0: 6e7e 33bd 64d9 e53c a0fe ccbc d0e6 b03c
000001e0: ee70 363d 3631 2e3d 68b0 59bd c031 363b
000001f0: ecda 863c b00b f63b a0e0 2f3b 66a8 7a3d
00000200: ea1a 49bd 9030 523c f8ae 523c 9464 543d
00000210: cac1 023d 8048 bcbc f0b7 94bb 94ff 3ebd
00000220: e010 a53b f0fb d83b c648 5d3d 8898 633d
00000230: e440 34bd 54da 743d 6e18 60bd 4018 883c
00000240: 84d5 fd3c e63c 0a3d 2e29 443d dc1a 8bbc
00000250: e600 5a3d d0e1 d83b 8050 9c3a 3857 aebc
00000260: 8a13 5fbd 709c 8dbc c01f 08bb 7016 e63b
00000270: e01f 1cbc a0fc 53bb a0df 413b 2a05 0ebd
00000280: 3023 87bb 3416 5abd 40b1 443b 8edf 603d
00000290: 7052 f3bc 8e2d 1b3d d4a2 a6bc c8eb ddbc
000002a0: 485d f33c a285 7abd fc3a 223d 5adc 283d
000002b0: 6c20 b13c 403f 09bb 6434 f1bc 7446 23bd
000002c0: ba5c 673d 44b1 f13c aea8 073d f604 20bd
000002d0: 722d 193d 1c72 1dbd 8664 413d 6c5e 453d
000002e0: 7cac 69bd a01c 6fbd 167d 61bd 3819 efbc
000002f0: e8d2 8f3c 2412 64bd f26f 573d f644 24bd
00000300: 9c5c a3bc 5823 6f3c 9cb1 10bd 603b 37bb
00000310: ec50 5ebd 9a18 65bd c015 853b b4f3 cebc
00000320: 120c 373d ce1f 12bd 5e68 0f3d b466 3c3d
00000330: 3c7a 88bc 981f 40bc 8cd9 9f3c 8c96 0abd
00000340: 2cd8 8f3c 3432 95bc 3044 7ebc d4dd 4abd
00000350: a8f2 4d3d 7255 5dbd d0ca 38bc e499 d03c
00000360: f030 32bd 70fd a43b bc84 763d 60d0 943c
00000370: 2014 313d ae4c 41bd 38a0 053d 6077 423b
00000380: 2014 ec3b b062 bbbc 4036 60bc 8e84 1c3d
00000390: 1aaa 1c3d 0eaa 48bd 4cf2 5a3d 1e45 723d
000003a0: bcb3 b3bc f006 053c 9490 0b3d 360f 7abd
000003b0: 4c78 bc3c e8bc 603d 4c05 91bc 1809 52bd
000003c0: a86e 1ebd 0628 233d d00a 84bb 4044 5ebb
000003d0: 98b4 223c 28a6 ae3c e2ec 153d 0068 3a3b
000003e0: 2a18 79bd 225f 273d 4c01 213d b092 8d3b
000003f0: 4030 0fbd 58fc 62bc fc67 e13c c6f4 3d3d

ln2.weight f4 [64]
1.0 1.0 1.0 1.0 1.0 1.0 1.0 1.0
1.0 1.0 1.0 1.0 1.0 1.0 1.0 1.0
1.0 1.0 1.0 1.0 1.0 1.0 1.0 1.0
1.0 1.0 1.0 1.0 1.0 1.0 1.0 1.0
1.0 1.0 1.0 1.0 1.0 1.0 1.0 1.0
1.0 1.0 1.0 1.0 1.0 1.0 1.0 1.0
1.0 1.0 1.0 1.0 1.0 1.0 1.0 1.0
1.0 1.0 1.0 1.0 1.0 1.0 1.0 1.0
00000000: 0000 803f 0000 803f 0000 803f 0000 803f
00000010: 0000 803f 0000 803f 0000 803f 0000 803f
00000020: 0000 803f 0000 803f 0000 803f 0000 803f
00000030: 0000 803f 0000 803f 0000 803f 0000 803f
00000040: 0000 803f 0000 803f 0000 803f 0000 803f
00000050: 0000 803f 0000 803f 0000 803f 0000 803f
00000060: 0000 803f 0000 803f 0000 803f 0000 803f
00000070: 0000 803f 0000 803f 0000 803f 0000 803f
00000080: 0000 803f 0000 803f 0000 803f 0000 803f
00000090: 0000 803f 0000 803f 0000 803f 0000 803f
000000a0: 0000 803f 0000 803f 0000 803f 0000 803f
000000b0: 0000 803f 0000 803f 0000 803f 0000 803f
000000c0: 0000 803f 0000 803f 0000 803f 0000 803f
000000d0: 0000 803f 0000 803f 0000 803f 0000 803f
000000e0: 0000 803f 0000 803f 0000 803f 0000 803f
000000f0: 0000 803f 0000 803f 0000 803f 0000 803f
