tests/fixtures/unbatched_multihead_self_attention_weights.pt (torch, 69125 bytes, 7 tensors)

q_heads.0.weight f4 [32, 64]
-0.08425455 0.03676571 -0.055852756 -0.087908596 0.114263624 0.0028759092 0.06781691 -0.007624984
0.10636458 -0.10019137 -0.08372562 0.034441695 0.066183776 0.004220605 -0.053902283 0.023399666
-0.0629753 -0.0368561 0.0017419308 -0.07534446 -0.11165346 -0.0066005588 -0.009312674 0.041435316
-0.09056194 0.0854442 -0.08922489 0.040475667 -0.056607723 0.02893208 -0.10951407 0.10781768
0.022344843 -0.09312843 -0.038788483 -0.011082098 -0.07204686 -0.06547323 -0.03989108 0.07141963
-0.09917082 -0.012361258 0.019418582 0.08249019 -0.0033780038 -0.038930967 -0.11757438 0.010562569
0.09476292 -0.10112926 0.030342251 0.0037905425 -0.0063153952 -0.11266115 -0.054956555 0.09432733
0.07574999 0.049909413 -0.01732713 -0.08928087 0.08617869 -0.11370264 -0.03202738 -0.09743962
0.053859517 0.07210182 -0.09592812 -0.033996984 -0.10141282 -0.07266821 -0.038699344 -0.11928843
0.07700758 -0.0428375 0.044012234 0.031415522 -0.09668693 -0.09609668 0.06661707 -0.09609702
0.08277513 -0.05539553 0.04861924 -0.10274853 -0.020544216 -0.021941379 0.0062501878 0.04482104
0.088913545 -0.05083728 -0.035637975 -0.10851276 -0.03455217 -0.09079018 0.038037702 0.107694894
0.07438737 -0.0059145093 -0.11996792 0.03382203 -0.03563443 -0.010395706 0.029955447 -0.034332618
0.09748748 0.08426143 0.121671066 0.06848842 0.045396566 -0.121557176 0.124315575 -0.013774738
0.08016172 0.06336142 -0.00247702 -0.0061915517 -0.053605035 -0.025462762 -0.01446113 -0.041546285
0.10384117 0.097974196 -0.050823808 -0.051378846 -0.057301283 -0.10516004 -0.08490704 0.081702456
-0.03912188 -0.10762292 -0.093713045 -0.026913866 0.10577957 0.07959366 -0.02150616 -0.006373018
-0.09173137 -0.107689485 0.10904586 0.11705193 -0.046804875 0.09195115 -0.038865715 -0.05939676
-0.10539913 0.07213341 -0.0014479309 0.1037139 0.11806132 0.11420131 0.08152865 0.0070722997
-0.12403202 0.10955018 0.03656861 0.028701305 -0.113476425 -0.121621355 0.0755377 -0.039504945
-0.061229333 -0.09900871 0.021944016 0.06299771 -0.105348855 -0.113376155 -0.110943004 -0.028906614
0.015225768 -0.014376089 -0.054412693 0.0075768977 -0.053818986 0.062967256 0.023436636 -0.054874763
-0.058852583 -0.078925684 -0.10492112 -0.013886243 0.06159608 -0.0048449337 -0.030097216 0.082195416
-0.09083797 0.05317466 -0.03670834 -0.008925527 -0.07965052 0.027008295 0.08014865 0.11604461
0.040645525 -0.09385088 -0.12488411 -0.11401264 -0.0071214885 -0.081730485 -0.06816581 0.12323956
-0.08285093 -0.009119004 -0.123375 -0.024002865 0.107772514 -0.041027367 0.07201111 -0.0034944415
-0.006217167 0.07440561 0.024212286 -0.034660503 0.02135852 0.051912412 0.017363131 0.10544877
-0.04172559 -0.020022973 -0.110113025 -0.030725509 0.09620559 0.064178124 -0.07720366 -0.074435875
-0.031371683 0.096802875 -0.099932626 -0.06282091 0.06671718 -0.025764361 0.01818645 0.059933275
-0.054034233 0.0770255 -0.04329884 -0.0063459426 -0.01349774 -0.045534 -0.009313941 0.05781716
0.029278755 -0.095624596 0.055232897 -0.115665734 0.00896427 0.11974563 -0.048463553 -0.023250163
-0.037424177 -0.124648154 0.025469959 -0.0050349236 0.04321021 -0.050292686 -0.015292555 -0.0034087747
00000000: a68d acbd a497 163d dcc5 64bd 6c09 b4bd
00000010: 0c03 ea3d c079 3c3b 98e3 8a3d 00db f9bb
00000020: acd5 d93d 2231 cdbd 5678 abbd bc12 0d3d
00000030: 5c8b 873d 004d 8a3b a4c8 5cbd a8b0 bf3c
00000040: 32f9 80bd 6cf6 16bd 8051 e43a 324e 9abd
00000050: 92aa e4bd 8049 d8bb 3094 18bc 14b8 293d
00000060: 8a78 b9bd 5efd ae3d 8abb b6bd d0c9 253d
00000070: 80dd 67bd f802 ed3c ea48 e0bd 84cf dc3d
00000080: 880c b73c 1eba bebd ace0 1ebd b091 35bc
00000090: 4e8d 93bd d416 86bd d464 23bd 7444 923d
000000a0: 121a cbbd e086 4abc b813 9f3c 9ef0 a83d
000000b0: 8061 5dbb 1476 1fbd d6ca f0bd a00e 2d3c
000000c0: 1013 c23d dc1c cfbd 5090 f83c c06a 783b
000000d0: 60f1 cebb e4ba e6bd 201a 61bd b02e c13d
000000e0: d022 9b3d d06d 4c3d a0f1 8dbc e4d8 b6bd
000000f0: 747e b03d eedc e8bd 242f 03bd 6c8e c7bd
00000100: cc9b 5c3d 1eaa 933d f675 c4bd 6c40 0bbd
00000110: 86b1 cfbd 12d3 94bd 3483 1ebd 7e4d f4bd
00000120: 26b6 9d3d 6076 2fbd 2c46 343d 90ad 003d
00000130: cc03 c6bd 56ce c4bd 886e 883d 84ce c4bd
00000140: 0286 a93d 6ce6 62bd f824 473d d26d d2bd
00000150: 584c a8bc 68be b3bc 60ce cc3b 4496 373d
00000160: 4e18 b63d c03a 50bd 20f9 11bd f03b debd
00000170: 9486 0dbd 34f0 b9bd 6ccd 1b3d 248f dc3d
00000180: 6858 983d 80ce c1bb beb1 f5bd f888 0a3d
00000190: 68f5 11bd c052 2abc 2065 f53c 5ca0 0cbd
000001a0: 84a7 c73d 4291 ac3d ae2e f93d a843 8c3d
000001b0: c0f1 393d f8f2 f8bd 2a99 fe3d 70af 61bc
000001c0: d42b a43d a2c3 813d 8055 22bb 80e2 cabb
000001d0: f490 5bbd 4897 d0bc 60ee 6cbc 702c 2abd
000001e0: aeaa d43d b2a6 c83d a02c 50bd a072 52bd
000001f0: c0b4 6abd 265e d7bd bee3 adbd 9e53 a73d
00000200: 443e 20bd 6869 dcbd a0ec bfbd 787a dcbc
00000210: f6a2 d83d 0002 a33d b02d b0bc c0d4 d0bb
00000220: a8dd bbbd 4e8c dcbd 7053 df3d ecb8 ef3d
00000230: 78b6 3fbd e250 bc3d a831 1fbd 044a 73bd
00000240: 80db d7bd aeba 933d 80c8 bdba f467 d43d
00000250: 22ca f13d 60e2 e93d 7ef8 a63d c0be e73b
00000260: 8004 febd d85b e03d f8c8 153d 001f eb3c
00000270: 5466 e8bd 9e14 f9bd 82b3 9a3d f0cf 21bd
00000280: 9ccb 7abd 14c5 cabd f0c3 b33c f204 813d
00000290: 24c1 d7bd c231 e8bd 1636 e3bd 90cd ecbc
000002a0: 8075 793c b089 6bbc d8df 5ebd a047 f83b
000002b0: 4c71 5cbd faf4 803d 30fe bf3c 5cc4 60bd
000002c0: 680f 71bd caa3 a1bd e2e0 d6bd 2083 63bc
000002d0: 2c4c 7c3d 40c2 9ebb 708e f6bc 1256 a83d
000002e0: 4209 babd accd 593d 7c5b 16bd 603c 12bc
000002f0: d01f a3bd 8040 dd3c fa24 a43d cca8 ed3d
00000300: ec7b 263d e434 c0bd 3ec3 ffbd 767f e9bd
00000310: 605b e9bb 5062 a7bd 849a 8bbd 0665 fc3d
00000320: c0ad a9bd e067 15bc 08ac fcbd a8a1 c4bc
00000330: d6b7 dc3d 500c 28bd 907a 933d 0003 65bb
00000340: 60b9 cbbb f861 983d d858 c63c 2cf8 0dbd
00000350: 10f8 ae3c 1ca2 543d 203d 8e3c 86f5 d73d
00000360: 74e8 2abd 3807 a4bc f082 e1bd 10b4 fbbc
00000370: 7007 c53d d26f 833d f41c 9ebd d671 98bd
00000380: 987f 00bd 9640 c63d 7aa9 ccbd 40a8 80bd
00000390: 04a3 883d c80f d3bc c0fb 943c 987c 753d
000003a0: 0053 5dbd 8cbf 9d3d 205a 31bd a0f1 cfbb
000003b0: a025 5dbc dc81 3abd 8099 18bc b0d1 6c3d
000003c0: 00da ef3c d4d6 c3bd e43b 623d 28e2 ecbd
000003d0: e0de 123c 323d f53d b881 46bd 2077 bebc
000003e0: 184a 19bd 8847 ffbd 60a6 d03c 00fc a4bb
000003f0: 30fd 303d b4ff 4dbd a08d 7abc c065 5fbb

q_heads.1.weight f4 [32, 64]
0.009969041 -0.022497356 0.09830761 -0.10811673 0.024786204 0.034804 -0.06673561 -0.08811553
-0.005802065 0.07471733 -0.058748737 -0.03348966 -0.06384958 -0.027683765 0.104815945 0.07314432
0.03590575 0.11929187 -0.047611967 -0.008712351 0.05904062 -0.043396577 -0.050872475 -0.074141994
-0.052580044 -0.016213343 -0.12438996 -0.028026193 0.015124336 -0.040824935 -0.0011117458 0.04816571
0.06812239 -0.02911438 -0.054964587 0.04080999 -0.046494275 0.12356657 0.028822199 0.09003878
0.08041835 -0.10146801 -0.11115058 -0.106111884 -0.014258191 0.0824486 -0.11580771 0.040362388
0.011288524 0.12333731 0.031590447 0.059728667 0.1017596 -0.09623556 -0.017659456 0.11922237
-0.0016193986 -0.060077637 0.055199564 -0.1165622 0.032126456 -0.08902222 0.11961168 0.12017077
-0.088877246 0.11634861 0.02931109 0.050622582 -0.037290856 -0.074716955 0.079284534 0.11611189
0.044230342 -0.08711575 -0.053198814 0.09085387 -0.10517846 0.00028038025 -0.00257048 0.015267938
0.10393275 -0.10387722 -0.010351226 -0.041408762 -0.043658927 -0.071640566 0.036051035 0.083342314
-0.06363675 -0.12495904 -0.00027631223 0.022386417 -0.010904208 -0.06356175 0.12065858 0.035209715
0.088362336 0.042287335 0.005514294 0.10606888 0.11226033 0.08992277 0.0070248246 0.018650249
-0.08984007 -0.09675723 -0.1128729 -0.06671196 0.045367554 -0.10165019 0.036335856 -0.029301673
0.040602118 0.017010868 0.0915145 -0.043197826 -0.008321196 -0.08152942 0.024256647 -0.04701197
-0.0053370893 0.09011644 0.04921542 -0.1094418 -0.028456554 0.0016731769 -0.04681018 0.019724876
0.10330148 0.009763688 -0.066112265 -0.026180178 0.02220808 -0.0043733716 0.058078557 -0.075525686
-0.067937076 0.03192301 -0.08256543 -0.004941225 -0.034185156 -0.064833805 0.08207609 -0.06600618
-0.06664604 -0.03450373 0.028714225 0.0010032803 0.064939976 0.08910771 -0.02967687 -0.1102107
0.031375423 -0.043416515 0.04108876 0.11017449 -0.079554856 -0.018971026 0.021199018 -0.0464333
0.104173526 -0.09247869 -0.05617869 0.0077708364 0.10331808 -0.018136784 -0.018411845 0.047463298
0.038521573 0.090308666 0.030726314 -0.054038182 0.09060167 -0.114374 0.0051852614 -0.050629377
-0.024049029 0.037547648 -0.07290533 0.06402218 -0.07598469 -0.05839315 0.058084995 0.018761069
-0.11187075 0.0715034 0.057829157 -0.0005905032 -0.107134685 0.071742326 -0.02668038 0.08838309
-0.0018121898 0.09946631 0.06440212 -0.09618603 -0.08944388 0.04231316 0.067806736 0.04776095
-0.024796695 0.044791684 -0.06903979 0.06580064 -0.037510008 0.09555383 -0.12384646 -0.07823077
0.008209005 0.043112144 0.08634475 -0.09234358 -0.08241697 0.024801642 0.06810354 -0.050951064
-0.05950688 0.10874586 -0.07209499 -0.054172233 -0.044695884 0.06858632 -0.09593584 0.032267287
0.03297004 -0.09431285 0.04932648 -0.06960851 0.1149165 0.011493683 -0.044234633 0.10400841
-0.114051074 0.037865385 -0.062899604 -0.10215369 0.0030712187 -0.07302463 -0.009266347 0.08600445
-0.065330446 0.052087396 0.067450345 -0.0034232587 0.06952718 0.016321748 0.09071508 0.100958586
0.11413199 -0.06204121 0.047434464 0.039987564 -0.08351606 -0.122481555 -0.075948596 0.065030545
00000000: 3055 233c 604c b8bc 8055 c93d 4e6c ddbd
00000010: 700c cb3c a48e 0e3d aeac 88bd ea75 b4bd
00000020: 401f bebb 6605 993d 84a2 70bd 742c 09bd
00000030: 92c3 82bd 10c9 e2bc bea9 d63d b0cc 953d
00000040: e811 133d 4c4f f43d c404 43bd 40be 0ebc
00000050: 94d4 713d 9cc0 31bd a85f 50bd c2d7 97bd
00000060: 2c5e 57bd d8d1 84bc 2ac0 febd 3097 e5bc
00000070: 10cc 773c 0c38 27bd 00b8 91ba 6849 453d
00000080: c083 8b3d 4881 eebc 8c22 61bd 6028 273d
00000090: c870 3ebd 7810 fd3d 881c ec3c 4066 b83d
000000a0: 60b2 a43d 76ce cfbd eaa2 e3bd 3051 d9bd
000000b0: 309b 69bc d0da a83d 982c edbd 0853 253d
000000c0: 80f3 383c 4698 fc3d fc64 013d 0ca6 743d
000000d0: 5667 d03d 2617 c5bd 90aa 90bc dc2a f43d
000000e0: 0042 d4ba f813 76bd f018 623d 2ab8 eebd
000000f0: 0897 033d 4851 b6bd f8f6 f43d 181c f63d
00000100: 4605 b6bd 2e48 ee3d d01d f03c a059 4f3d
00000110: 4cbe 18bd 3405 99bd ee5f a23d 12cc ed3d
00000120: e02a 353d be69 b2bd 00e7 59bd 9811 ba3d
00000130: ce67 d7bd 0000 9339 8075 28bb 6026 7a3c
00000140: b2da d43d 94bd d4bd 3098 29bc 3c9c 29bd
00000150: b4d3 32bd 4ab8 92bd 40aa 133d 60af aa3d
00000160: fc53 82bd 86ea ffbd 00de 90b9 b863 b73c
00000170: 90a7 32bc aa2c 82bd d81b f73d 1038 103d
00000180: 50f7 b43d 7c35 2d3d 40b1 b43b a43a d93d
00000190: bee8 e53d 6e29 b83d 8030 e63b 68c8 983c
000001a0: 12fe b7bd a828 c6bd e829 e7bd 48a0 88bd
000001b0: 54d3 393d fa2d d0bd e8d4 143d 100a f0bc
000001c0: 684e 263d 605a 8b3c f46b bb3d 34f0 30bd
000001d0: a055 08bc e6f8 a6bd e0b5 c63c a08f 40bd
000001e0: c0e2 aebb f88e b83d 1c96 493d 0623 e0bd
000001f0: b81d e9bc 804e db3a 08bc 3fbd 1096 a13c
00000200: ba8f d33d e0f7 1f3c de65 87bd d077 d6bc
00000210: b8ed b53c 804e 8fbb c8e3 6d3d 36ad 9abd
00000220: 9822 8bbd b4c1 023d 1018 a9bd 00ea a1bb
00000230: bc05 0cbd 96c7 84bd 8217 a83d 402e 87bd
00000240: b87d 88bd c853 0dbd 183a eb3c 8080 833a
00000250: 40ff 843d 1a7e b63d e81c f3bc 26b6 e1bd
00000260: 8483 003d 84d5 31bd b04c 283d 2aa3 e13d
00000270: a8ed a2bd 2069 9bbc 90a9 ad3c d830 3ebd
00000280: ee58 d53d 7865 bdbd a01b 66bd 80a2 fe3b
00000290: 6e98 d33d 9893 94bc 70d4 96bc e068 423d
000002a0: ccc8 1d3d c0f3 b83d c0b5 fb3c 2457 5dbd
000002b0: 5e8d b93d ea3c eabd 20e9 a93b c060 4fbd
000002c0: 7802 c5bc 90cb 193d 644f 95bd 101e 833d
000002d0: dc9d 9bbd a82d 6fbd 88ea 6d3d d0b0 993c
000002e0: 7e1c e5bd 6070 923d 44de 6c3d 00cc 1aba
000002f0: 6e69 dbbd a4ed 923d d090 dabc 3202 b53d
00000300: 0087 edba feb4 cb3d 42e5 833d 2efd c4bd
00000310: 5a2e b7bd 9050 2d3d 42de 8a3d fca0 433d
00000320: 7022 cbbc 7c77 373d bc64 8dbd 7cc2 863d
00000330: 18a4 19bd bab1 c33d 36a3 fdbd 7437 a0bd
00000340: 107f 063c 5c96 303d 84d5 b03d a21e bdbd
00000350: 3aca a8bd d02c cb3c de79 8b3d 10b2 50bd
00000360: 7cbd 73bd 26b6 de3d 8aa6 93bd b4e3 5dbd
00000370: 0813 37bd fc76 8c3d 027a c4bd b42a 043d
00000380: 980b 073d 1827 c1bd 900a 4a3d e88e 8ebd
00000390: 5859 eb3d 0050 3c3c 602f 35bd 5c02 d53d
000003a0: 9c93 e9bd bc18 1b3d 82d1 80bd f435 d1bd
000003b0: 8046 493b f08d 95bd e0d1 17bc 1a23 b03d
000003c0: f8cb 85bd 9859 553d 6823 8a3d c058 60bb
000003d0: 4464 8e3d 30b5 853c d4c8 b93d 60c3 ce3d
000003e0: 08be e93d ec1e 7ebd a44a 423d 00ca 233d
000003f0: 780a abbd 9cd7 fabd f08a 9bbd bc2e 853d

k_heads.0.weight f4 [32, 64]
-0.06908807 0.07603155 0.049592048 0.12044962 0.10070886 0.12355204 -0.0148794055 -0.09411667
0.06751874 -0.03925565 -0.100078374 -0.052967012 0.083516195 0.0840005 -0.10091537 0.004727885
-0.123796806 -0.10334046 0.099264845 -0.04878415 -0.10784486 -0.03430876 -0.07429664 0.06491338
-0.0054924935 0.078141704 -0.12371603 0.030117705 0.0600048 -0.07454011 -0.043540657 0.025309205
-0.102569565 -0.11413656 -0.028127208 0.119400814 0.1087672 0.06698179 -0.11685705 -0.12204647
0.05886811 0.011235118 0.11500205 -0.0016440898 -0.021504313 0.109162524 -0.04509121 -0.086028636
-0.090327844 0.055655017 0.08763321 -0.106285185 -0.022905543 -0.08336592 -0.08357285 -0.07196927
0.08680053 0.0035532564 -0.03759837 -0.0796925 -0.04577276 0.0072516203 -0.0047615916 -0.08235651
0.037976757 0.038241267 0.068156734 -0.053195313 0.11995834 -0.012785926 -0.07614291 -0.09391889
-0.065906435 0.06986289 0.094537735 0.10306282 0.011594728 -0.02904524 -0.0030411333 0.09894772
0.056467205 0.028715655 -0.10000713 0.009323075 -0.08701947 -0.03744194 -0.010733187 0.06710051
-0.05959907 0.08077356 0.06260648 0.07918517 -0.11662994 -0.091309935 -0.10809824 -0.10554521
0.09055008 0.015553281 -0.12233813 0.00018268824 -0.03537211 -0.018235624 -0.09510584 -0.07184948
0.0222539 -0.05665356 -0.123796225 -0.07762869 0.064070985 -0.06976348 0.021491572 -0.027025014
-0.11826679 -0.027389511 0.10131152 -0.10276212 -0.05854377 0.0004374385 -0.027142733 -0.055169865
0.015415773 -0.09800498 0.101661086 -0.071863726 -0.020980045 -0.031302705 -0.059306115 0.10066895
-0.01075989 0.0031467974 0.08167085 -0.029287979 0.009323984 -0.079616204 -0.06010379 0.028447837
-0.1069338 -0.07882823 -0.015373886 0.09192486 0.058499724 -0.030030891 -0.05155334 -0.06476538
0.05027853 -0.05367224 0.06006424 0.07326646 0.09473102 -0.03101252 0.0006439388 -0.07920545
-0.06675777 -0.113807276 0.017932504 -0.012649626 0.09638657 -0.08142768 -0.044332787 -0.108558595
0.022537395 0.12075496 0.123031706 0.052217826 0.11782637 -0.12178412 0.008976147 0.045028463
0.12246364 -0.07034607 -0.008206949 -0.04456483 -0.054167837 0.11727926 -0.0028032362 -0.09049383
-0.03361313 0.12472953 0.061419412 0.05483666 -0.08211748 -0.10527493 -0.116355166 -0.0042131394
-0.058393642 0.016980708 0.046877667 0.09175876 0.0021801144 0.062244162 -0.11331345 0.061596632
-0.047746375 -0.030217588 -0.07202777 -0.01750873 -0.041429833 0.057259455 -0.12478346 -0.04529351
0.12161818 -0.050896287 -0.010026589 0.121087864 -0.039502203 0.017280057 0.08162871 0.09565078
-0.11672695 -0.04173945 -0.03706789 0.10002048 0.07751942 0.11927956 -0.076692596 -0.040571198
0.08406639 -0.10961239 -0.09809466 0.10338731 -0.05105728 -0.07825115 -0.023584574 0.113072366
0.06689353 0.06858431 -0.06260216 0.050718144 0.110719845 0.07706319 0.03763762 -0.0061808974
0.08980903 -0.007859603 0.03453231 0.06811847 -0.06295571 0.07371411 -0.09899406 0.11088544
0.06608647 -0.100880235 -0.008267 0.10540329 -0.03554918 0.019825295 -0.05954267 0.024306446
-0.05059038 0.0074411184 0.0835398 0.09923549 -0.05582261 -0.05750388 -0.018328443 0.08122404
00000000: 0c7e 8dbd 6eb6 9b3d 0821 4b3d 4aae f63d
00000010: 7240 ce3d da08 fd3d c0c8 73bc 3ec0 c0bd
00000020: 4447 8a3d 88ca 20bd e4f5 ccbd f0f3 58bd
00000030: 8a0a ab3d 7408 ac3d b8ac cebd 60ec 9a3b
00000040: 2e89 fdbd 2aa4 d3bd 5e4b cb3d e4d1 47bd
00000050: c4dd dcbd 5887 0cbd d628 98bd 4ef1 843d
00000060: 60fa b3bb c208 a03d d45e fdbd 68b9 f63c
00000070: 98c7 753d 7ca8 98bd b057 32bd 4055 cf3c
00000080: fe0f d2bd 6ec0 e9bd 086b e6bc 6a88 f43d
00000090: 56c1 de3d c02d 893d c052 efbd 80f3 f9bd
000000a0: b01f 713d 8013 383c 3286 eb3d 807e d7ba
000000b0: d029 b0bc 9a90 df3d 90b1 38bd c82f b0bd
000000c0: cefd b8bd 84f6 633d 0a79 b33d 0cac d9bd
000000d0: 68a4 bbbc c0bb aabd 3e28 abbd a064 93bd
000000e0: 7ac4 b13d c0dd 683b c000 1abd d235 a3bd
000000f0: 387c 3bbd 009f ed3b 2007 9cbb 88aa a8bd
00000100: 848d 1b3d e0a2 1c3d c295 8b3d 54e3 59bd
00000110: b8ac f53d 107c 51bc d0f0 9bbd 8c58 c0bd
00000120: f4f9 86bd 4614 8f3d 009d c13d 9a12 d33d
00000130: d0f7 3d3c 48f0 edbc c04d 47bb 1aa5 ca3d
00000140: 284a 673d 183d eb3c 8ad0 ccbd d0bf 183c
00000150: 4437 b2bd b85c 19bd 40da 2fbc fe6b 893d
00000160: 281e 74bd 9c6c a53d d437 803d d62b a23d
00000170: aedb eebd b400 bbbd 9c62 ddbd 1628 d8bd
00000180: 5272 b93d 30d3 7e3c 6a8c fabd 0090 3f39
00000190: 58e2 10bd e062 95bc dac6 c2bd d225 93bd
000001a0: d04d b63c 900d 68bd e088 fdbd cafb 9ebd
000001b0: a637 833d 28e0 8ebd 180f b03c 9063 ddbc
000001c0: dc35 f2bd f85f e0bc 6a7c cf3d f274 d2bd
000001d0: 98cb 6fbd 0058 e539 705a debc ccf9 61bd
000001e0: 7092 7c3c d6b6 c8bd b033 d03d 4a2d 93bd
000001f0: 58de abbc 4437 00bd f8ea 72bd 862b ce3d
00000200: 404a 30bc 803a 4e3b 0c43 a73d 58ed efbc
00000210: a0c3 183c d20d a3bd 642f 76bd 700b e93c
00000220: 1c00 dbbd b270 a1bd c0e2 7bbc 1a43 bc3d
00000230: 689d 6f3d 5803 f6bc 9829 53bd b6a3 84bd
00000240: dcf0 4d3d 6cd7 5bbd ec05 763d ba0c 963d
00000250: 5602 c23d f80d febc 00ce 283a 7836 a2bd
00000260: 4cb8 88bd ca13 e9bd 30e7 923c 6040 4fbc
00000270: 5266 c53d 8ec3 a6bd 4c96 35bd f853 debd
00000280: 58a0 b83c 604e f73d 0cf8 fb3d 5ce2 553d
00000290: f44e f13d f469 f9bd b010 133c c46f 383d
000002a0: 38ce fa3d 9a11 90bd 7076 06bc 9c89 36bd
000002b0: 18df 5dbd 1c30 f03d 80b6 37bb d454 b9bd
000002c0: ecad 09bd 3272 ff3d ec92 7b3d 689c 603d
000002d0: 362d a8bd 629a d7bd 9e4b eebd 600e 8abb
000002e0: 2c2e 6fbd 201b 8b3c cc02 403d 04ec bb3d
000002f0: 40e0 0e3b bcf3 7e3d e210 e8bd c04c 7c3d
00000300: b491 43bd e08a f7bc 4c83 93bd 786e 8fbc
00000310: 54b2 29bd e488 6a3d 788e ffbd b085 39bd
00000320: f412 f93d a078 50bd 9046 24bc eafc f73d
00000330: 10cd 21bd e88e 8d3c f42c a73d 8ee4 c33d
00000340: 8a0e efbd fcf6 2abd 80d4 17bd 8ad7 cc3d
00000350: 80c2 9e3d d848 f43d 0211 9dbd fc2d 26bd
00000360: 002b ac3d 767c e0bd dae5 c8bd babc d33d
00000370: 7021 51bd 2442 a0bd 7034 c1bc 7c92 e73d
00000380: 7aff 883d ee75 8c3d 9035 80bd d4bd 4f3d
00000390: 16c1 e23d 4ed3 9d3d e829 1a3d 2089 cabb
000003a0: cced b73d 90c5 00bc c071 0d3d b281 8b3d
000003b0: ecee 80bd 6cf7 963d 66bd cabd e817 e33d
000003c0: 5858 873d 4c9a cebd 5072 07bc aedd d73d
000003d0: 049c 11bd a868 a23c 04e3 73bd 501e c73c
000003e0: dc37 4fbd a0d4 f33b ea16 ab3d fa3b cb3d
000003f0: 40a6 64bd 3089 6bbd 8825 96bc ca58 a63d

k_heads.1.weight f4 [32, 64]
-0.019507676 0.1151073 0.10311167 -0.044192255 0.06476359 -0.08343522 0.05023372 -0.033921525
-0.06786133 -0.02689837 -0.07067157 0.10726382 -0.00537014 -0.024101898 0.088070676 -0.030107394
-0.07974316 0.06511153 -0.0402364 -0.059341148 -0.086450994 0.08772886 -0.002512008 -0.071067184
-0.007891491 -0.079054296 0.07832965 -0.07830632 0.08549337 0.08385076 0.12383668 0.1147584
0.11147186 -0.07197568 -0.08978747 -0.04359196 -0.019976303 -0.07351202 0.00018399954 0.088406384
0.026638955 0.10587534 0.037082225 -0.055570498 0.08070786 -0.0035482347 -0.071181804 0.006998241
0.053239077 0.11250153 0.059890047 -0.033664867 0.12299742 0.1082892 0.056402057 0.09115654
0.0069970638 0.0341464 0.027567849 0.11090392 -0.07224658 -0.08730474 0.07574575 0.06940353
0.10246992 0.015328959 0.07487416 0.015657946 0.076747105 0.036126703 0.05372496 0.078718394
-0.069291785 0.10310857 -0.058557704 0.030335605 0.0006594211 0.014511973 -0.122472554 -0.02426514
-0.05692917 -0.054068446 -0.105630055 -0.0037775785 -0.054413736 0.038871363 0.0552541 0.062184677
0.09999274 -0.111337185 0.10746631 -0.016065553 -0.103191316 0.037342608 0.013173223 -0.0022729188
0.051378712 0.07800163 0.0030759722 0.10411428 -0.061372384 0.108228475 0.09544061 0.11716403
0.0041753203 -0.054389402 -0.095983356 0.008762643 0.02701664 0.106672406 0.115119725 0.04635036
0.053449422 -0.0032001436 -0.09802975 0.0060477257 -0.08982037 0.09572388 -0.11675006 -0.11219028
0.075622976 -0.106061 0.09793079 0.11781201 0.035446674 0.09311962 0.10533367 -0.09231302
-0.08775993 -0.06972571 -0.10021147 0.11291611 0.106718644 0.120031565 -0.038118765 -0.08548139
-0.11961083 0.085473984 -0.1113071 -0.024817199 0.109932855 -0.052456453 -0.024162263 0.040661365
-0.035810456 -0.04812096 -0.024303302 -0.0034423172 0.034125283 -0.10986832 -0.068395644 -0.08923803
0.10589604 0.09792033 0.10451123 0.09266296 0.011221856 -0.021427572 0.0677184 -0.027765483
0.05085635 0.03261681 -0.027368084 0.015563592 -0.08011751 -0.09043011 -0.086462766 -0.07922916
0.01521574 0.05505152 -0.063037276 -0.047015145 -0.080287024 -0.00037321448 -0.015956596 0.046055064
-0.07979272 -0.036082894 0.08019489 -0.081735045 0.10083449 -0.066804305 0.03614609 0.0019111782
-0.08792181 -0.007285759 -0.060793906 -0.10924485 -0.10491039 -0.03449616 -0.09470026 0.0683873
-0.013445526 -0.010078639 0.114843294 0.10525389 0.11306417 -0.07949886 0.10989182 -0.019503266
0.11694193 0.09320265 0.112871855 0.03931412 -0.03667897 0.06435786 -0.09363809 -0.058305115
0.056053594 -0.12246968 -0.122117385 0.119784296 0.046936616 0.03087388 -0.0785213 0.05369152
0.09370847 -0.018889308 -0.010427311 0.09342189 -0.117341116 -0.020543784 0.06475744 0.04764101
0.0075237453 0.06741409 -0.06399223 0.054475382 -0.037426203 0.0016964525 -0.058260053 -0.0869088
-0.08538613 -0.011928037 -0.09073304 0.047470108 -0.02035831 -0.08989099 -0.048110858 -0.083221704
0.088861346 -0.106216475 -0.0139267 -0.027796283 0.068753794 -0.1225519 0.11265387 0.0754904
0.05773522 -0.032447085 -0.030847281 0.10368207 -0.023036033 0.1114582 -0.026050612 -0.038594782
00000000: 90ce 9fbc 60bd eb3d 362c d33d f002 35bd
00000010: c6a2 843d 16e0 aabd e0c1 4d3d 4cf1 0abd
00000020: e2fa 8abd f859 dcbc 42bc 90bd 22ad db3d
00000030: 00f8 afbb 5871 c5bc 665e b43d c8a3 f6bc
00000040: 6250 a3bd 3259 853d ecce 24bd b40f 73bd
00000050: 380d b1bd 30ab b33d 80a0 24bb ac8b 91bd
00000060: 504b 01bc 38e7 a1bd 4c6b a03d 105f a0bd
00000070: 2617 af3d f2b9 ab3d 169e fd3d 7406 eb3d
00000080: 5c4b e43d fc67 93bd 7ee2 b7bd 7c8d 32bd
00000090: 58a5 a3bc 788d 96bd 00f0 4039 680e b53d
000000a0: f039 da3c 2cd5 d83d 88e3 173d e49d 63bd
000000b0: 2a4a a53d 8089 68bb c4c7 91bd 8051 e53b
000000c0: 3811 5a3d 3467 e63d 444f 753d 2ce4 09bd
000000d0: 12e6 fb3d bac6 dd3d d805 673d 48b0 ba3d
000000e0: a047 e53b 18dd 0b3d f8d5 e13c 9821 e33d
000000f0: 04f6 93bd d4cc b2bd 9620 9b3d 7023 8e3d
00000100: c0db d13d 5026 7b3c a057 993d 1845 803c
00000110: 962d 9d3d 98f9 133d b40e 5c3d 1c37 a13d
00000120: dae8 8dbd 962a d33d 34da 6fbd 6082 f83c
00000130: 00dd 2c3a a0c3 6d3c e4d2 fabd b0c7 c6bc
00000140: 902e 69bd e076 5dbd 9254 d8bd 4091 77bb
00000150: f0e0 5ebd 9437 1f3d 2052 623d 5cb5 7e3d
00000160: fec8 cc3d c004 e4bd 4c17 dc3d e89b 83bc
00000170: f855 d3bd 90f4 183d 80d4 573c 40f5 14bb
00000180: 7c72 523d 52bf 9f3d 4096 493b de39 d53d
00000190: 9c61 7bbd e4a6 dd3d 5e76 c33d b2f3 ef3d
000001a0: 20d1 883b 6cc7 5ebd ec92 c4bd 3091 0f3c
000001b0: 0052 dd3c 1077 da3d e4c3 eb3d e0d9 3d3d
000001c0: c8ed 5a3d 80b9 51bb d2c3 c8bd 002c c63b
000001d0: bef3 b7bd e20a c43d a81a efbd 04c4 e5bd
000001e0: 38e0 9a3d 8236 d9bd f08f c83d 6c47 f13d
000001f0: 8830 113d 80b5 be3d 2eb9 d73d 9c0e bdbd
00000200: 7abb b3bd 5acc 8ebd ac3b cdbd 9040 e73d
00000210: 4e8f da3d 1cd3 f53d 6c22 1cbd de10 afbd
00000220: 86f6 f4bd fc0c af3d faf4 e3bd 704d cbbc
00000230: 7a24 e13d 94dc 56bd f0ef c5bc 888c 263d
00000240: fcad 12bd 7c1a 45bd b817 c7bc 8098 61bb
00000250: f4c6 0b3d a402 e1bd 0413 8cbd 6ec2 b6bd
00000260: 06e0 d83d 748a c83d fc09 d63d 14c6 bd3d
00000270: e0db 373c e088 afbc f2af 8a3d 7074 e3bc
00000280: c04e 503d 3499 053d 0833 e0bc 70fe 7e3c
00000290: a614 a4bd 6c33 b9bd 6413 b1bd e642 a2bd
000002a0: 704b 793c b47d 613d b019 81bd f492 40bd
000002b0: 866d a4bd 00ac c3b9 68b7 82bc 3ca4 3c3d
000002c0: 5e6a a3bd a8cb 13bd 383d a43d b464 a7bd
000002d0: 5082 ce3d b2d0 88bd ec0d 143d 8080 fa3a
000002e0: 5a10 b4bd 60bd eebb 0803 79bd c4bb dfbd
000002f0: 42db d6bd d84b 0dbd 36f2 c1bd a40e 8c3d
00000300: a04a 5cbc e020 25bc f632 eb3d 5a8f d73d
00000310: 308e e73d 4cd0 a2bd f60e e13d 50c5 9fbc
00000320: 407f ef3d 08e1 be3d 5c29 e73d d807 213d
00000330: b03c 16bd 0ece 833d 54c5 bfbd 58d1 6ebd
00000340: 7498 653d 62d1 fabd ae18 fabd 7851 f53d
00000350: 9c40 403d 38eb fc3c c6cf a0bd a4eb 5b3d
00000360: 3aea bf3d c0bd 9abc 50d7 2abc fa53 bf3d
00000370: 8a50 f0bd 704b a8bc 8c9f 843d 3823 433d
00000380: c089 f63b 6610 8a3d 5c0e 83bd 9421 5f3d
00000390: 384c 19bd 805b de3a 18a2 6ebd 3efd b1bd
000003a0: ecde aebd d06d 43bc 3ed2 b9bd 0470 423d
000003b0: 78c6 a6bc c418 b8bd e40f 45bd 2470 aabd
000003c0: f0fc b53d 0688 d9bd d02c 64bc 08b5 e3bc
000003d0: cace 8c3d 7efc fabd 12b7 e63d b69a 9a3d
000003e0: c47b 6c3d 3ce7 04bd 70b3 fcbc 4457 d43d
000003f0: 10b6 bcbc 3244 e43d 1868 d5bc 9015 1ebd

v_heads.0.weight f4 [32, 64]
0.12170312 0.007553354 -0.02003692 0.038531825 -0.017635465 0.11908071 0.09646253 -0.08115268
-0.09482148 -0.04096672 -0.02009812 0.036460772 -0.031350598 -0.059417978 0.085635394 -0.069840565
-0.111018226 0.07184923 0.080436274 -0.017345399 0.11678797 0.10260184 -0.021376476 -0.109406516
-0.081280455 0.0035527945 0.09348829 0.10460371 0.117488295 0.10027334 -0.11425167 -0.059944853
0.08171219 0.083389565 0.0054381043 -0.124007374 -0.01404947 0.021130368 -0.102617785 -0.017106012
0.10543202 -0.08926307 -0.024958476 0.049022377 0.025697067 0.015482485 0.09086609 -0.044765666
-0.04136236 0.075340375 -0.068385854 0.01538907 0.0072775483 0.106424645 0.10178971 -0.11191763
0.013693407 0.08034319 -0.09319624 0.120646045 0.020916745 0.03039001 -0.10080744 -0.11761229
0.060474873 0.072681025 0.12130442 0.108927205 -0.10239133 -0.089525536 0.023446813 -0.12006277
0.099014044 -0.00876908 0.0755887 0.12038334 0.06899418 -0.12477152 -0.04591942 0.10927899
0.09231776 -0.05921009 -0.040478602 -0.03155093 0.02632235 -0.01025036 -0.03349167 -0.03837444
0.02796729 0.083718434 0.079939544 -0.050488725 0.11528425 0.11210905 0.055051133 -0.05192922
0.066345334 -0.10083349 -0.09573178 -0.07625899 0.11555898 0.046475306 0.07887477 -0.113876045
0.05661957 0.07590704 0.10095027 -0.05727452 -0.016715258 0.07623626 -0.023577422 -0.12318568
-0.07813938 -0.0063384473 -0.05945836 -0.065520465 -0.07269175 -0.11605023 -0.012491956 -0.046351403
0.07903716 -0.07784477 -0.06415805 0.11067189 0.049219042 0.0007826537 -0.06490506 -0.081086054
0.09515776 -0.10798532 -0.018107712 -0.055818126 0.053367674 0.016103953 -0.046735957 -0.06274767
0.06613511 0.012045845 -0.038193643 0.08130334 -0.007928833 -0.05060391 -0.09613046 -0.031127334
-0.023503691 -0.008828729 0.009473965 -0.06711231 -0.11446534 0.09657535 0.026387662 -0.08982314
-0.08794603 0.032795608 0.090606764 -0.10202207 -0.111283645 -0.12115772 -0.010874733 -0.086414725
-0.12347615 -0.04937139 -0.095474586 0.11348531 -0.122962564 -0.017957047 -0.12287429 -0.06816003
-0.06359106 0.05263111 -0.00805667 0.08057392 -0.08908501 -0.017003566 -0.10910244 -0.0164015
-0.11583954 0.05437456 0.02715087 0.07343143 -0.033636525 -0.023633674 0.060546726 -0.0609037
-0.008157223 0.10694687 -0.0012135953 -0.022959307 -0.09433979 0.06738983 -0.097702846 0.051133186
0.04745406 0.07350229 -0.120505586 -0.05019392 -0.08239363 -0.063538164 -0.09214939 0.09761272
0.009351432 0.020904213 -0.08156741 -0.0050152987 0.07218185 -0.02726613 0.053385347 -0.000332281
0.085663855 -0.10828537 -0.07194047 -0.013927057 -0.09306005 0.12204239 0.025361776 0.08054541
0.031361178 -0.10843338 0.038882717 -0.03179179 0.0806362 0.04437962 0.107172 0.065911695
0.013278574 0.015925124 0.094604254 -0.080723 0.015220091 -0.06255968 -0.040075585 0.05226648
0.0728931 -0.051881105 -0.08519983 -0.11352129 0.005167812 0.091208845 0.026791736 -0.072529525
0.090996504 0.03335914 0.10637976 0.024533734 0.09989503 -0.046240836 -0.035029486 -0.098223
-0.117276 0.06435315 0.03905174 0.030939862 0.09752293 0.07259029 -0.050482422 0.04865919
00000000: 7c3f f93d 2082 f73b 7824 a4bc 8cd3 1d3d
00000010: 4078 90bc 96e0 f33d 268e c53d 6033 a6bd
00000020: c431 c2bd b8cc 27bd d0a4 a4bc e457 153d
00000030: 7c69 00bd 4460 73bd 9c61 af3d 9208 8fbd
00000040: 865d e3bd b025 933d c6bb a43d f017 8ebc
00000050: 882e ef3d ea20 d23d b81d afbc 8610 e0bd
00000060: 5e76 a6bd 00d6 683b ca76 bf3d 783a d63d
00000070: b49d f03d 1c5c cd3d c8fc e9bd bc88 75bd
00000080: b858 a73d 26c8 aa3d 2032 b23b 94f7 fdbd
00000090: c02f 66bc 9819 ad3c 4629 d2bd e821 8cbc
000000a0: beec d73d 8ecf b6bd b875 ccbc b0cb 483d
000000b0: a882 d23c 40aa 7d3c 0018 ba3d 345c 37bd
000000c0: 946b 29bd 0e4c 9a3d e20d 8cbd 7022 7c3c
000000d0: 8078 ee3b 2af5 d93d 2077 d03d 1235 e5bd
000000e0: 505a 603c f88a a43d acdd bebd 4615 f73d
000000f0: 9859 ab3c 78f4 f83c 2274 cebd b6de f0bd
00000100: 80b4 773d cad9 943d 746e f83d 3a15 df3d
00000110: 8cb2 d1bd 2a59 b7bd 8813 c03c 78e3 f5bd
00000120: e0c7 ca3d 30ac 0fbc 40ce 9a3d 8a8b f63d
00000130: d24c 8d3d 3688 ffbd 0016 3cbd aacd df3d
00000140: 1811 bd3d 4886 72bd e4cc 25bd 8c3b 01bd
00000150: f8a1 d73c 20f1 27bc 902e 09bd 842e 1dbd
00000160: a81b e53c 9274 ab3d 58b7 a33d 44cd 4ebd
00000170: 261a ec3d 6e99 e53d 4c7d 613d bcb3 54bd
00000180: 10e0 873d ca81 cebd 060f c4bd ac2d 9cbd
00000190: 30aa ec3d e45c 3e3d 1889 a13d d837 e9bd
000001a0: ece9 673d 2675 9b3d 04bf ce3d b098 6abd
000001b0: 70ee 88bc c221 9c3d 7025 c1bc c648 fcbd
000001c0: 8a07 a0bd c0b2 cfbb 9c8a 73bd 982f 86bd
000001d0: 6adf 94bd beab edbd 10ab 4cbc f8da 3dbd
000001e0: 3cde a13d 146d 9fbd 4c65 83bd f2a7 e23d
000001f0: e899 493d 002b 4d3a f2ec 84bd 7210 a6bd
00000200: 12e2 c23d 6827 ddbd a056 94bc 8ca1 64bd
00000210: 1098 5a3d 70ec 833c 346e 3fbd da81 80bd
00000220: d871 873d f05b 453c f070 1cbd 5e82 a63d
00000230: f0e7 01bc 0c46 4fbd 0ce0 c4bd c0fe febc
00000240: d08a c0bc 60a6 10bc b038 1b3c 2e72 89bd
00000250: ce6c eabd 4cc9 c53d f02a d83c 32f5 b7bd
00000260: 0c1d b4bd b054 063d 0a90 b93d f2f0 d0bd
00000270: aee8 e3bd 8a21 f8bd f02b 32bc 34fa b0bd
00000280: 10e1 fcbd a839 4abd 2e88 c3bd fc6a e83d
00000290: ccd3 fbbd a81a 93bc 84a5 fbbd 7c97 8bbd
000002a0: 083c 82bd b893 573d 2000 04bc f003 a53d
000002b0: 3472 b6bd 104b 8bbc 1a71 dfbd 705c 86bc
000002c0: 483d edbd dcb7 5e3d 806b de3c 3863 963d
000002d0: 74c6 09bd 689b c1bc d8ff 773d 2876 79bd
000002e0: e0a5 05bc f606 db3d 8011 9fba 2815 bcbc
000002f0: 3835 c1bd ae03 8a3d 6e18 c8bd 0871 513d
00000300: 305f 423d 5e88 963d a2cb f6bd 2498 4dbd
00000310: febd a8bd 4c20 82bd d2b8 bcbd 2ee9 c73d
00000320: c036 193c 503f ab3c d00c a7bd 6057 a4bb
00000330: 14d4 933d 385d dfbc 98aa 5a3d 0036 aeb9
00000340: 8870 af3d b8c4 ddbd 8655 93bd 502e 64bc
00000350: 4496 bebd 5cf1 f93d 80c3 cf3c fef4 a43d
00000360: 9474 003d 5212 debd 7c43 1f3d 1c38 02bd
00000370: 9824 a53d 68c7 353d fe7c db3d b6fc 863d
00000380: 608e 593c 6875 823c e0bf c13d 1a52 a5bd
00000390: b05d 793c 4a1f 80bd 4c26 24bd 6015 563d
000003a0: fa48 953d 4881 54bd 407d aebd da7d e8bd
000003b0: c056 a93b b4cb ba3d 587a db3c 5c8a 94bd
000003c0: 605c ba3d 98a3 083d a2dd d93d f8fa c83c
000003d0: c495 cc3d 0867 3dbd 147b 0fbd 2429 c9bd
000003e0: 662e f0bd 96cb 833d b8f4 1f3d 9875 fd3c
000003f0: 1aba c73d 38aa 943d a8c6 4ebd dc4e 473d

v_heads.1.weight f4 [32, 64]
-0.09224473 -0.051640913 0.12407225 -0.08964458 -0.024714544 0.11203532 0.06759761 0.040237963
0.10771279 0.06441054 -0.015160665 -0.05128488 0.008765876 -0.009309381 -0.028218225 0.010802612
0.06633164 0.07748522 0.032085598 -0.011632144 -0.12465574 -0.013332665 -0.019644931 0.07046603
0.09959853 -0.013482317 -0.021721825 -0.08091137 -0.0472555 0.008069098 -0.12009877 -0.0122697055
0.014006823 0.118729874 0.11293526 -0.081384614 -0.08029993 -0.118102595 0.028330728 -0.105948314
-0.10858771 0.023826197 -0.11453089 -0.05768934 0.049642846 -0.048396185 0.11227186 0.07563415
0.03186235 0.061006993 -0.06698854 0.11776313 0.019228607 0.025003314 -0.057338968 0.04159996
0.031743646 -0.07874802 0.06319292 0.068326145 -0.11498186 0.07069652 -0.01634638 0.019692808
-0.109393165 0.10599382 -0.034365132 0.0676537 -0.05355467 0.051561683 -0.12190454 -0.057941183
0.053147122 0.113343835 -0.052572757 4.322827e-05 -0.10824703 0.010247797 -0.042211354 -0.08848737
0.04016751 -0.033861622 0.09503643 -0.10684265 0.105099306 -0.025729388 0.12424357 -0.10965939
-0.10325016 -0.020057768 -0.0911987 0.102580786 0.116359815 0.10752821 0.07235657 -0.032183856
0.107983306 -0.0597509 -0.05835928 0.10538903 0.09061794 9.301305e-05 -0.007320389 0.026091456
-0.05365877 0.07970032 0.041549996 0.020534948 0.0011716634 0.00016769767 -0.12341599 0.040715083
-0.07718654 0.051448792 0.051427886 -0.05869803 -0.081948236 -0.06279415 -0.09093657 -0.003279835
-0.0394246 0.047078088 -0.07932341 0.07977639 0.084734306 -0.12117717 0.045445323 -0.033810824
0.06046018 -0.08960837 -0.026839495 -0.044950157 0.09005712 0.11501311 -0.11411646 -0.040220365
-0.084561124 0.11252363 0.042504147 -0.01419729 -0.094147086 -0.029562801 -0.038238257 0.1125793
-0.056683347 -0.043985546 0.09642692 -0.10674822 -0.09903973 -0.034225777 0.05981697 0.0802636
0.10843672 0.10635851 0.12215716 0.018512964 0.057908475 0.053632677 -0.09642336 -0.094577864
0.087665826 -0.086803705 0.12476581 0.111866266 -0.056338117 -0.079049274 0.07007097 0.038172603
0.05814801 -0.02804032 0.055487186 -0.097461656 0.09860769 -0.086033866 -0.08905795 0.06997885
0.109447345 0.0514545 -0.10680829 -0.11260949 -0.110958174 -0.017021388 -0.09270218 -0.073826104
-0.036702245 0.051925436 0.057955757 0.12045252 -0.118226126 -0.059170276 -0.10366331 -0.08441308
0.014888644 -0.08577292 0.0637916 -0.076846555 -0.06263369 0.045085162 0.10666233 -0.008223802
0.0016824454 -0.012795463 -0.10618079 0.023821712 -0.036004424 -0.011787295 -0.052179143 -0.08555353
-0.050762713 -0.04872136 -0.11746748 0.12332918 0.048806474 -0.025393367 0.039338425 -0.115526944
-0.059497923 -0.076285735 0.091092214 -0.124732256 0.09467217 -0.07311866 0.111441076 0.12369636
-0.118009 0.122999415 0.05190642 -0.03144218 -0.020665258 0.09995334 0.08160044 -0.07025039
0.09583178 0.04651986 0.04575278 0.067816526 -0.10879034 0.02861701 0.10392986 -0.09170993
0.004216999 -0.11772376 -0.062112868 -0.0051709116 0.056727245 -0.040113628 0.11328308 -0.08975658
-0.09660384 -0.015354499 0.02848418 -0.006874591 -0.046269044 -0.035086334 -0.07881871 0.11099905
00000000: ceea bcbd 6c85 53bd 9819 fe3d 9497 b7bd
00000010: 2876 cabc c672 e53d 9e70 8a3d 90d0 243d
00000020: 8698 dc3d ace9 833d 7064 78bc 1810 52bd
00000030: c09e 0f3c 6086 18bc e829 e7bc 70fd 303c
00000040: e2d8 873d 92b0 9e3d 306c 033d c094 3ebc
00000050: 824b ffbd 4071 5abc 68ee a0bc 7e50 903d
00000060: 50fa cb3d f0e4 5cbc f8f1 b1bc dcb4 a5bd
00000070: fc8e 41bd 4034 043c 58f6 f5bd e006 49bc
00000080: e07c 653c a628 f33d 9a4a e73d faac a6bd
00000090: 4a74 a4bd c6df f1bd d815 e83c 6efb d8bd
000000a0: 3c63 debd 282f c33c 2c8f eabd a84b 6cbd
000000b0: 4c56 4b3d 143b 46bd caee e53d 14e6 9a3d
000000c0: 1882 023d 78e2 793d 4a31 89bd cc2d f13d
000000d0: 5085 9d3c c0d3 cc3c 44dc 6abd b864 2a3d
000000e0: a005 023d a446 a1bd 4a6b 813d 94ee 8b3d
000000f0: 9c7b ebbd 56c9 903d d8e8 85bc d052 a13c
00000100: 8609 e0bd 4a13 d93d 74c2 0cbd 068e 8a3d
00000110: 245c 5bbd 5832 533d 16a9 f9bd bc53 6dbd
00000120: ccb0 593d d020 e83d 8856 57bd 0050 3538
00000130: 9eb0 ddbd 60e6 273c d0e5 2cbd de38 b5bd
00000140: b086 243d 7cb2 0abd 76a2 c23d 52d0 dabd
00000150: 4e3e d73d 70c6 d2bc 6a73 fe3d 1a95 e0bd
00000160: d274 d3bd 3050 a4bc 62c6 babd e015 d23d
00000170: 0e4e ee3d c037 dc3d ae2f 943d 38d3 03bd
00000180: 5a26 dd3d 5cbd 74bd 240a 6fbd 34d6 d73d
00000190: e695 b93d 0010 c338 e0df efbb c0bd d53c
000001a0: 4cc9 5bbd ec39 a33d 5430 2a3d e838 a83c
000001b0: 8092 993a 00d8 2f39 86c1 fcbd dcc4 263d
000001c0: fa13 9ebd f8bb 523d 0ca6 523d 586d 70bd
000001d0: 7ad4 a7bd 389a 80bd f43c babd 80f2 56bb
000001e0: b07b 21bd f4d4 403d 5074 a2bd ce61 a33d
000001f0: 2e89 ad3d bc2b f8bd e024 3a3d 387d 0abd
00000200: 18a5 773d 9884 b7bd 80de dbbc a81d 38bd
00000210: de6f b83d fe8b eb3d e4b5 e9bd 1cbe 24bd
00000220: 622e adbd ca72 e63d d418 2e3d c09b 68bc
00000230: 30d0 c0bd b02d f2bc b89f 1cbd fa8f e63d
00000240: cc2c 68bd 302a 34bd 7a7b c53d d09e dabd
00000250: 58d5 cabd 5430 0cbd a402 753d 3e61 a43d
00000260: 1214 de3d 7ed2 d93d 882d fa3d 80a8 973c
00000270: 7031 6d3d f0ad 5b3d 9c79 c5bd 0ab2 c1bd
00000280: 248a b33d 24c6 b1bd 3885 ff3d 241a e53d
00000290: ccc2 66bd 96e4 a1bd 5e81 8f3d e05a 1c3d
000002a0: 9c2c 6e3d d0b4 e5bc 8846 633d fa99 c7bd
000002b0: d4f2 c93d 8632 b0bd 0464 b6bd 1251 8f3d
000002c0: ee25 e03d f4c1 523d 4ebe dabd ce9f e6bd
000002d0: 0a3e e3bd 7070 8bbc a4da bdbd 2432 97bd
000002e0: 1855 16bd c4af 543d 0463 6d3d d0af f63d
000002f0: 8a20 f2bd 885c 72bd 6e4d d4bd c4e0 acbd
00000300: 80ef 733c b6a9 afbd 2ca5 823d ba61 9dbd
00000310: 1846 80bd 38ab 383d c871 da3d 20bd 06bc
00000320: 8085 dc3a 10a4 51bc 5075 d9bd c025 c33c
00000330: 6079 13bd 801f 41bc ccb9 55bd b036 afbd
00000340: 90ec 4fbd 0c90 47bd ca92 f0bd 0294 fc3d
00000350: 4ce9 473d c005 d0bc 5421 213d 6499 ecbd
00000360: 18b4 73bd b23b 9cbd 8e8e ba3d a073 ffbd
00000370: 7ce3 c13d 3cbf 95bd 383b e43d 8454 fd3d
00000380: b4ae f1bd 1ee7 fb3d d49b 543d 84c9 00bd
00000390: 304a a9bc 56b4 cc3d 221e a73d 70df 8fbd
000003a0: 7443 c43d 9c8b 3e3d 4467 3b3d 64e3 8a3d
000003b0: 78cd debd 386e ea3c 2ed9 d43d 6ad2 bbbd
000003c0: c02e 8a3b 2819 f1bd 106a 7ebd c070 a9bb
000003d0: d45a 683d 304e 24bd f600 e83d 4cd2 b7bd
000003e0: 3cd8 c5bd 7091 7bbc a857 e93c 4044 e1bb
000003f0: 9c84 3dbd b0b6 0fbd b46b a1bd 7853 e33d

output_proj.weight f4 [64, 64]
-0.08234829 0.033044413 0.07867889 -0.038128108 -0.019859359 -0.021898255 -0.015573218 -0.07687245
-0.0875428 0.014282197 0.11179909 0.044447705 0.07364127 0.09426713 -0.023276255 -0.1180557
0.11294238 0.106387675 0.11614576 -0.049148053 -0.061494395 -0.052359775 0.081304654 -0.033145756
0.03936617 0.056017846 -0.12038003 0.11416879 0.110356614 -0.07253124 0.12111972 0.054487124
0.093829885 0.060450345 -0.06417209 0.03278041 0.06562361 0.10477652 -0.117811814 -0.09563403
-0.09366807 -0.02352184 -0.005252227 0.08042793 -0.0803899 0.085328236 0.07112461 0.086967885
0.11122678 0.11144014 -0.109037966 0.11477776 0.003788203 0.1062586 0.091664314 0.011063114
-0.039918825 0.0018743873 -0.1177665 -0.026796937 0.030277476 -0.10361612 -0.030322194 0.017483935
0.049340576 0.10150452 0.0429506 -0.094894245 0.09481403 -0.04970336 -0.07888842 0.08927898
0.08220108 0.110276684 0.11096841 0.0962235 0.0347099 0.017233163 0.027660802 0.006743774
0.09189524 -0.047537997 0.09134239 -0.00429751 -0.046071514 -0.021426842 -0.08221769 -0.057244748
0.10205841 -0.014364839 -0.07434672 0.006709218 0.00545381 0.07890366 -0.09469323 -0.069766745
0.07236162 -0.11518149 0.11441517 -0.09880327 -0.09451069 0.120009035 -0.020335525 0.104996264
0.10160151 0.059136122 0.110263765 -0.037221804 -0.03185156 0.033998236 0.052426636 0.122529656
-0.058788568 0.07025315 0.052655473 -0.022187322 -0.11772567 0.11758742 0.014405996 0.10164799
-0.12257773 0.029266402 0.009374231 0.059652 0.10110822 0.12194909 0.014584541 0.03511937
-0.06525527 0.06530453 -0.100897536 0.041073218 0.04797055 -0.08883482 0.07795969 0.011959672
-0.07414763 0.07714526 0.048698425 -0.08071549 0.103546605 0.060763165 0.009573504 0.09011641
0.042336196 0.10321252 0.012543768 -0.07383965 0.08862975 0.09055576 0.033692315 -0.087154254
-0.0018885285 -0.03122291 0.01779139 0.063923806 -0.08347708 -0.054558307 0.11238547 0.0700386
0.12164861 -0.10398373 0.032166883 -0.041193053 -0.036179766 -0.01777561 0.02556467 0.09876354
-0.043536186 -0.09918898 0.029424697 0.04771082 0.040344656 -0.06744571 -0.049648494 0.07656768
0.09038404 0.047914043 0.053826094 -0.11911863 -0.069816664 -0.11732079 0.0017634034 -0.01890777
0.03160256 0.026612088 0.07855201 0.1121296 -0.11050953 0.03935267 -0.0667578 0.047771096
0.008599371 -0.02567871 -0.037504196 0.109504774 -0.0075538754 0.047390237 -0.09459551 0.045634508
-0.07842299 -0.12050925 0.056811184 -0.09268199 -0.048667297 0.090927005 0.0509703 -0.09535746
-0.07089661 -0.07801825 0.03702788 -0.08600812 0.0015744716 -0.06549965 -0.08190103 -0.010602817
0.025648624 0.078173354 -0.028697982 0.057328433 -0.03151712 0.028325513 0.12158248 0.0582411
0.060160473 0.021464452 -0.0061758608 -0.018669158 -0.002292037 0.11310583 0.105051085 0.030425817
-0.05982159 -0.08278404 -0.0079806745 0.07683951 -0.013184294 0.07608442 0.08294323 -0.08278316
-0.08714037 -0.0046387464 0.124742776 0.10811351 -0.07418431 0.11869012 0.024099857 -0.103038535
0.09466544 0.11825347 -0.005354017 -0.108005494 0.07035814 0.09014717 -0.06550215 0.027396888
00000000: 38a6 a8bd 9459 073d 6622 a13d 382c 1cbd
00000010: 18b0 a2bc f863 b3bc d026 7fbc 4e6f 9dbd
00000020: a449 b3bd e0ff 693c ecf6 e43d cc0e 363d
00000030: 3cd1 963d 200f c13d d8ad bebc 30c7 f1bd
00000040: 564e e73d c8e1 d93d d4dd ed3d 784f 49bd
00000050: 8ce1 7bbd 3477 56bd 0e83 a63d d8c3 07bd
00000060: 6c3e 213d f872 653d ce89 f6bd 54d1 e93d
00000070: a602 e23d 428b 94bd 9e0d f83d e42d 5f3d
00000080: e229 c03d c89a 773d a86c 83bd c044 063d
00000090: ac65 863d 1295 d63d 5247 f1bd c6db c3bd
000000a0: 0cd5 bfbd e0b0 c0bc e01a acbb 66b7 a43d
000000b0: 76a3 a4bd 92c0 ae3d c8a9 913d 381c b23d
000000c0: deca e33d ba3a e43d 4c4f dfbd 9a10 eb3d
000000d0: 8043 783b 1c9e d93d 80ba bb3d 1042 353c
000000e0: ec81 23bd 00ae f53a 902f f1bd 4085 dbbc
000000f0: 7808 f83c b034 d4bd 4066 f8bc 783a 8f3c
00000100: 5819 4a3d 9ae1 cf3d f8ec 2f3d ea57 c2bd
00000110: dc2d c23d c095 4bbd 4090 a1bd e6d7 b63d
00000120: 0a59 a83d bed8 e13d 6843 e33d d410 c53d
00000130: f82b 0e3d 902c 8d3c e898 e23c e0fa dc3b
00000140: 9233 bc3d 34b7 42bd b811 bb3d 20d2 8cbb
00000150: 7cb5 3cbd 5887 afbc c061 a8bd 7879 6abd
00000160: 0004 d13d 805a 6bbc 1843 98bd 00d9 db3b
00000170: e0b5 b23b 3e98 a13d 86ee c1bd dee1 8ebd
00000180: 5432 943d 46e4 ebbd 8052 ea3d 5e59 cabd
00000190: d28e c1bd 4cc7 f53d b096 a6bc 4808 d73d
000001a0: 7414 d03d b838 723d f8d1 e13d e475 18bd
000001b0: c876 02bd bc41 0b3d 50bd 563d d4f0 fa3d
000001c0: 48cc 70bd e2e0 8f3d 44ad 573d 30c2 b5bc
000001d0: 281a f1bd acd1 f03d 2007 6c3c d22c d03d
000001e0: 080a fbbd 18c0 ef3c 6096 193c a855 743d
000001f0: d411 cf3d 72c0 f93d 00f4 6e3c 54d9 0f3d
00000200: 8ea4 85bd 62be 853d 5ea3 cebd 643c 283d
00000210: c47c 443d 08ef b5bd 54a9 9f3d 80f2 433c
00000220: b6da 97bd 56fe 9d3d 0078 473d 2a4e a5bd
00000230: 3e10 d43d cce2 783d 30da 1c3c f48e b83d
00000240: b868 2d3d 1661 d33d 6084 4d3c 3e39 97bd
00000250: 8483 b53d 4c75 b93d f400 0a3d ee7d b2bd
00000260: 8088 f7ba 30c7 ffbc 40bf 913c 7cea 823d
00000270: 08f6 aabd 8878 5fbd 5a2a e63d 6670 8f3d
00000280: e822 f93d 6cf5 d4bd 6cc1 033d 0cba 28bd
00000290: 3c31 14bd 289e 91bc 006d d13c 8a44 ca3d
000002a0: 0053 32bd 9823 cbbd 100c f13c 6c6c 433d
000002b0: 7040 253d fa20 8abd 385c 4bbd 84cf 9c3d
000002c0: 441b b93d 8441 443d c078 5c3d 78f4 f3bd
000002d0: 0afc 8ebd e245 f0bd 0022 e73a 78e4 9abc
000002e0: b071 013d 9801 da3c e0df a03d 34a4 e53d
000002f0: d252 e2bd 4430 213d 50b8 88bd a0ab 433d
00000300: 60e4 0c3c 285c d2bc 009e 19bd 0a44 e03d
00000310: 8086 f7bb 441c 423d 4abb c1bd 40eb 3a3d
00000320: 3c9c a0bd 8ecd f6bd d8b2 683d 0ed0 bdbd
00000330: 5c57 47bd f037 ba3d 3cc6 503d c64a c3bd
00000340: 3e32 91bd 08c8 9fbd 8caa 173d 0625 b0bd
00000350: 805e ce3a ae24 86bd babb a7bd 70b7 2dbc
00000360: 101d d23c 5a19 a03d 0818 ebbc 38d1 6a3d
00000370: 1818 01bd e80a e83c 3c00 f93d 388e 6e3d
00000380: d46a 763d 38d6 af3c e05e cabb 10f0 98bc
00000390: 0036 16bb 08a4 e73d 0625 d73d 903f f93c
000003a0: 7c07 75bd ae8a a9bd 60c1 02bc 085e 9d3d
000003b0: f002 58bc 26d2 9b3d 24de a93d 388a a9bd
000003c0: a676 b2bd a000 98bb 2479 ff3d 9e6a dd3d
000003d0: f2ed 97bd ce13 f33d 106d c53c de05 d3bd
000003e0: f4df c13d e02e f23d c070 afbb fc31 ddbd
000003f0: ee17 903d 149f b83d fe25 86bd 706f e03c
